with_prediction/with_prediction/prediction_model.pth (torch, 127798 bytes, 9 tensors)

lstm.weight_ih_l0 f4 [200, 1]
0	0x3e6005b3	0.21877174
1	0x3e190ea6	0.14946994
2	0x3deefcf5	0.116693415
3	0x3e29e48a	0.16591087
4	0xbe91ee93	-0.2850233
5	0x3da1272a	0.07868798
6	0xbd0a9fdf	-0.03384387
7	0xbb5aa5cd	-0.0033362985
8	0x3d096817	0.033546533
9	0x3e83ad34	0.2571808
10	0x3ea594cb	0.32340083
11	0x3e4cc7aa	0.19998041
12	0x3e4a27b1	0.19741704
13	0x3e257f99	0.16161956
14	0x3ec3e554	0.382609
15	0xbde9a21a	-0.114078715
16	0x3dba664c	0.09101543
17	0xbd5a76d8	-0.053335994
18	0x3e49c17c	0.19702715
19	0x3c110fc4	0.0088538565
20	0x3dee28e6	0.116288945
21	0xbd0c5afb	-0.034266453
22	0xbdc3c275	-0.09558574
23	0xbb4c3551	-0.0031159709
24	0x3e011875	0.12606986
25	0x3dde42de	0.10852598
26	0x3df38c7a	0.11892028
27	0x3e099a2e	0.13437721
28	0x3d572cd0	0.05253297
29	0x3e471b51	0.19444014
30	0x3e078ff9	0.13238515
31	0xbe0de2c8	-0.13856041
32	0x3e9e80d7	0.30957672
33	0xbc136cf4	-0.008998144
34	0xbc4ec7cc	-0.0126208775
35	0xbc8e7853	-0.01739136
36	0xbe33e9c9	-0.1756965
37	0x3df59c58	0.11992711
38	0x3ded32ab	0.1158193
39	0x3df9d62e	0.12199055
40	0xbb618981	-0.0034414234
41	0x3df33e87	0.118771605
42	0xbdc64f5e	-0.09683107
43	0x3dfa84c5	0.12232355
44	0x3d87af7f	0.0662527
45	0x3e4a3cc3	0.19749741
46	0xbd616ba6	-0.055034302
47	0x3e376a0a	0.17911544
48	0xbd1dcd6c	-0.038525984
49	0xbd4df238	-0.050279826
50	0x3dc0052f	0.09375989
51	0x3e1fe037	0.15612875
52	0xbd598c87	-0.053112533
53	0xbdfd7fea	-0.12377913
54	0xbeafdd8a	-0.34348708
55	0xbd4cd6cf	-0.050009545
56	0x3d7f6fdc	0.062362537
57	0x3c0f2921	0.008737833
58	0x3e03b44a	0.12861744
59	0xbd84605d	-0.06463692
60	0x3e7c993a	0.24667826
61	0x3dfeb3fd	0.12436674
62	0xbd82eb16	-0.06392495
63	0xbdd07046	-0.101776645
64	0x3e9ff2b2	0.3123985
65	0xbda160bc	-0.07879779
66	0xbde486fc	-0.11158559
67	0x3df4e052	0.11956848
68	0x3e48aeff	0.19598006
69	0x3c6b0163	0.014343592
70	0x3dd444c9	0.10364682
71	0x3e2de0f5	0.16980346
72	0x3cbb5ae8	0.022870496
73	0xbda11b80	-0.07866573
74	0xba454541	-0.0007525273
75	0x3ca13007	0.019676222
76	0x3cacd5f4	0.021098115
77	0xbc40af49	-0.011760541
78	0x3d6651cb	0.056230348
79	0x3e2f11fd	0.17096706
80	0x3d919e9f	0.07110333
81	0xbe0619b2	-0.1309574
82	0x3e828ff9	0.25500467
83	0x3e05dc04	0.1307221
84	0x3df73dba	0.1207232
85	0xbe92b93d	-0.2865695
86	0xbe15a8f9	-0.14615239
87	0xbc7759e1	-0.015097112
88	0x3d2103b6	0.03931018
89	0x3e0f543f	0.13996981
90	0x3e15564a	0.14583698
91	0x3e08b82c	0.13351506
92	0xbe1e850a	-0.15480438
93	0xbcd3c094	-0.025848664
94	0xbd0c6e0c	-0.034284636
95	0xbd10b2ac	-0.035326645
96	0xbe5b46ea	-0.2141377
97	0x3d3b9ddf	0.045804854
98	0xbe11c340	-0.14234638
99	0xbe01f6e4	-0.12691838
100	0xbef29ae2	-0.4738379
101	0xbe44d2a1	-0.19220974
102	0x3e0386e5	0.12844427
103	0xbe7b76ea	-0.24557081
104	0xbe4a7c33	-0.1977394
105	0x3e4aabbb	0.19792072
106	0xbe744809	-0.23855604
107	0xbe15879f	-0.14602517
108	0xbe833dbe	-0.25633043
109	0xbec07f9e	-0.37597364
110	0x3e82e0b8	0.25562072
111	0xbd97832c	-0.07398066
112	0x3e433ea8	0.1906687
113	0x3cd43624	0.025904723
114	0xbe139f3d	-0.14416213
115	0xbdaec6af	-0.0853399
116	0x3e91c7a1	0.28472617
117	0xbe03992a	-0.12851396
118	0x3e84c986	0.25935
119	0xbd110161	-0.035401706
120	0xbddd92c8	-0.10819012
121	0x3d33a377	0.043857064
122	0xbc6039f2	-0.01368569
123	0x3e57a752	0.21059921
124	0xbdd0e93e	-0.102007374
125	0x3e737f8f	0.23779128
126	0xbe5a2728	-0.21304
127	0x3e3c191d	0.18368955
128	0xbd9c5c53	-0.07634797
129	0x3e860046	0.26172084
130	0x3c87ac0f	0.016561536
131	0x3c0d773d	0.008634386
132	0x3e98e063	0.29858693
133	0xbe4dea99	-0.20109023
134	0x3c8ebdfe	0.01742458
135	0x3e42b48f	0.1901419
136	0xbe9c172e	-0.30486435
137	0xbe645eb3	-0.2230175
138	0xbe769d12	-0.24083355
139	0xbe740927	-0.23831616
140	0xbe7d4cc1	-0.2473631
141	0x3e4d75f5	0.20064528
142	0x3e52027c	0.2050876
143	0x3dc9f0d5	0.09860388
144	0xbcc46eaf	-0.02397856
145	0xbe87e57d	-0.26542273
146	0x3e51b128	0.20477736
147	0xbe1074ad	-0.14107008
148	0x3e619587	0.22029696
149	0xbe3c4e57	-0.1838926
150	0x3ebdcbef	0.3706965
151	0x3e411b5e	0.18858096
152	0x3de1c6c6	0.11024241
153	0x3d1fe2d4	0.03903468
154	0xbe6e62e2	-0.23279908
155	0x3e75da24	0.24008995
156	0xbd08a8ee	-0.03336423
157	0x3d864697	0.06556433
158	0x3df828a1	0.12117124
159	0x3e80131e	0.25014585
160	0x3e5fbd66	0.21849594
161	0x3d93bfd8	0.07214326
162	0x3e23433e	0.1594362
163	0x3dd171af	0.102267615
164	0x3e810734	0.25200808
165	0xbe0506b8	-0.12990844
166	0x3c8c1d52	0.017103825
167	0xbccf696d	-0.025318826
168	0x3db9b64e	0.09067975
169	0x3d03d4ec	0.03218548
170	0x3e1a4e5f	0.15068959
171	0x3d64576f	0.055747446
172	0xbc9d7294	-0.019219674
173	0xbd202f91	-0.039107863
174	0x3e32b071	0.1745012
175	0x3e433361	0.19062568
176	0xba8b9582	-0.0010649415
177	0x3e938870	0.2881503
178	0x3e257a43	0.1615992
179	0x3e83dc17	0.25753853
180	0xbd1861fe	-0.037202828
181	0xbc941ce7	-0.018080188
182	0x3eba4564	0.36381066
183	0x3e485139	0.19562234
184	0x3e05d098	0.13067853
185	0x3e1bcfe5	0.15216024
186	0xbe6101b5	-0.21973307
187	0x3dbc82e3	0.09204652
188	0x3d7bad5f	0.061444636
189	0x3e627d1b	0.22118036
190	0x3e1ae9d0	0.15128255
191	0x3e00280c	0.12515277
192	0xbe170c8b	-0.14750879
193	0x3e17007f	0.14746283
194	0x3dad3d5f	0.08458971
195	0x3e2bc8a9	0.16775765
196	0xbdc3a768	-0.095534146
197	0x3e4d4942	0.20047477
198	0xbd83819b	-0.06421205
199	0x3c57bc0d	0.013167393

lstm.weight_hh_l0 f4 [200, 50]
0	0xbe6de96c	-0.23233575
1	0x3d092aee	0.033488207
2	0x3e6bb851	0.2301953
3	0x3dd20dea	0.1025656
4	0x3e7316c2	0.2373915
5	0x3e681027	0.22662412
6	0xbe64c8af	-0.2234218
7	0xbd8c2d62	-0.068445936
8	0xbbdbd479	-0.0067086783
9	0xbdb92e30	-0.09042013
10	0x3deb1acf	0.11479723
11	0xbe34f0ba	-0.17669955
12	0x3e66475b	0.22488157
13	0x3d660f21	0.05616677
14	0xbdb9077f	-0.09034633
15	0x3e119317	0.14216267
16	0xbd4aeaf2	-0.049540468
17	0xbe4f92da	-0.20270863
18	0x3ddf161f	0.10892891
19	0xbe33e94e	-0.17569467
20	0xbd53cbf9	-0.051708195
21	0xbe85a450	-0.26101923
22	0x3e8cb0db	0.2747868
23	0x3de70484	0.11280158
24	0xbc4e86a8	-0.012605347
25	0x3e91d020	0.284791
26	0xbe87d8b5	-0.26532522
27	0x3e0bf2d8	0.13666856
28	0xbe67912b	-0.22613971
29	0x3e9ccb62	0.3062392
30	0x3d1ab076	0.037765943
31	0x3db6c1e2	0.08923699
32	0x3c0c7681	0.008573175
33	0xbe615544	-0.22005183
34	0x3e8493f3	0.25894126
35	0xbe1e43ba	-0.15455523
36	0x3dfac81b	0.12245198
37	0xbe2bbc57	-0.16771065
38	0xbe55d280	-0.2088108
39	0xbe13bb68	-0.14426959
40	0xbe4b775a	-0.19869748
41	0x3e8b60b1	0.27222207
42	0xbe6ad25c	-0.22931808
43	0x3dc333c5	0.09531359
44	0xbe0aca16	-0.13553652
45	0xbe837df2	-0.25682026
46	0x3d1b3ff3	0.037902784
47	0xbe098df0	-0.13433051
48	0xbcac5ae0	-0.021039426
49	0x3e8c4f8f	0.27404448
50	0xbd2f088b	-0.042732757
51	0x3ca978c8	0.020687476
52	0x3b9ff652	0.0048816586
53	0xbdb86852	-0.090042725
54	0x3de3fdb7	0.11132377
55	0x3e0125f1	0.1261213
56	0xbc1b8512	-0.009492176
57	0xbe08c6fa	-0.13357154
58	0xbd4377e9	-0.047721777
59	0xbe368005	-0.17822273
60	0x3dcb7214	0.09933868
61	0xbe3a9226	-0.18219814
62	0xbd78a527	-0.060704377
63	0x3e034054	0.12817508
64	0xbe01e04e	-0.12683222
65	0x3df7e915	0.12105004
66	0xbd8508b7	-0.06495803
67	0xbcef50a5	-0.029213259
68	0x3e5d7631	0.21627118
69	0xbdacb5a2	-0.08433081
70	0xbdf658d7	-0.120286636
71	0xbdd6c48d	-0.10486708
72	0x3d933365	0.07187537
73	0x3e2f2ae9	0.17106213
74	0xbe069538	-0.1314286
75	0x3cf29a8c	0.02961471
76	0xbe3ca3a8	-0.18421805
77	0x3e0d97be	0.13827416
78	0x3d7298c8	0.059227735
79	0x3da7418f	0.08166801
80	0xbd93ea3a	-0.072224095
81	0xbdd99196	-0.106234714
82	0x3babe50f	0.005245812
83	0xbe03823f	-0.12842654
84	0x3dd2c16a	0.10290797
85	0xbdaabdbb	-0.083369695
86	0x3d173f38	0.036925524
87	0x3dc7161d	0.09721015
88	0xbd5391eb	-0.05165283
89	0x3d8327ea	0.064040974
90	0xbb519a16	-0.0031982712
91	0x3d6970e4	0.056992427
92	0xbd841290	-0.06448853
93	0x3e2c2e02	0.16814426
94	0x3d184acc	0.037180707
95	0xbda5d50e	-0.080972776
96	0xbc1bca72	-0.009508716
97	0xbde813bb	-0.11331888
98	0xbe225422	-0.15852407
99	0xbaf77876	-0.0018880505
100	0x3db13ecc	0.08654556
101	0xbd02b224	-0.03190817
102	0x3e175bf3	0.1478117
103	0x3e263a81	0.16233255
104	0xbdbb5273	-0.09146585
105	0xbd5c796e	-0.053826742
106	0x3db049d5	0.08607832
107	0x3df04bd2	0.117332116
108	0xbd275953	-0.04085667
109	0x3e309f85	0.17248352
110	0xbd959698	-0.07304114
111	0xbe0001e4	-0.12500721
112	0xbdc8c641	-0.09803439
113	0x3e1aa42a	0.15101686
114	0xbd06a03c	-0.032867655
115	0x3e13e639	0.14443292
116	0x3d84bc67	0.064812474
117	0xbdb27c73	-0.08715143
118	0x3cfabbc8	0.03060712
119	0x3d9be9ab	0.07612928
120	0x3de4fdd9	0.1118123
121	0xbdf2da96	-0.11858098
122	0x3bb7ddf3	0.005611175
123	0xbb6c5488	-0.0036061127
124	0xbca86305	-0.020555029
125	0x3e1a0753	0.15041856
126	0x3c9fa787	0.019489063
127	0x3d3106db	0.04321943
128	0x3df4c5a0	0.119517565
129	0x3da3caa5	0.07997636
130	0x3b4d6a17	0.0031343752
131	0x3ceb7dea	0.028746564
132	0x3d8d8113	0.069093846
133	0x3be02ee6	0.006841528
134	0xbe0890ef	-0.13336538
135	0xbd85064d	-0.064953424
136	0x3dbdb3de	0.092628226
137	0xbde45d2d	-0.11150584
138	0xbddc0414	-0.10742965
139	0x3c53507e	0.012897609
140	0x3d9c3996	0.07628171
141	0x3dadd444	0.08487752
142	0x3d7576b3	0.059927654
143	0xbbf6d61b	-0.0075328476
144	0xbdbbd2a4	-0.09171036
145	0x3c5093da	0.012730563
146	0xbd64fab3	-0.055903148
147	0x3d85abdd	0.06526921
148	0x3d515098	0.05110225
149	0x3d3cadf0	0.046064317
150	0x3d9d7a0a	0.07689293
151	0x3d4e0669	0.050299082
152	0xbcde9e37	-0.027175052
153	0xbd7de02a	-0.061981358
154	0x3d0f03f5	0.034915883
155	0xbde1fc87	-0.11034494
156	0x3e235e1a	0.15953866
157	0x3e151677	0.14559351
158	0x3d88cfe5	0.06680278
159	0xbdea5541	-0.11442042
160	0x3debc311	0.11511815
161	0x3ce9fc4e	0.028562691
162	0x3ca9d719	0.02073245
163	0x3e200457	0.15626656
164	0xbe190f47	-0.14947234
165	0xbd76f1eb	-0.060289305
166	0xbd02dbbe	-0.031947844
167	0xbd76cfdb	-0.06025682
168	0xbd1549ae	-0.03644722
169	0xbd305c86	-0.043056987
170	0x3c9c29eb	0.019062957
171	0xbc7a41e0	-0.015274495
172	0xbdfbde11	-0.12298215
173	0x3da5636e	0.08075605
174	0xbdc508d3	-0.09620824
175	0xb9da9f85	-0.00041699052
176	0x3c1dffed	0.009643537
177	0x3ce15769	0.0275075
178	0x3c003bdc	0.007826772
179	0x3d1614a7	0.03664079
180	0xbd348f0c	-0.044081733
181	0x3cb617e0	0.022228181
182	0x3dcc8a81	0.09987355
183	0xbdaa831b	-0.08325788
184	0x3de63f13	0.11242499
185	0xbe224409	-0.15846266
186	0x3e1de6c2	0.15420058
187	0xbd5f706b	-0.05455057
188	0x3e23eec3	0.16009049
189	0x3d39f137	0.045396056
190	0xbd33cf78	-0.04389903
191	0xbdc6b84b	-0.0970312
192	0xbd05a3cd	-0.032626916
193	0xbd09c18a	-0.03363184
194	0x3dc828c7	0.09773403
195	0xbdade193	-0.084902905
196	0x3da4ccf4	0.08046904
197	0xbdf11c99	-0.11773033
198	0x3c487877	0.012235752
199	0x3e00e53b	0.12587444
200	0xbd509c41	-0.050930265
201	0xbc872191	-0.016495498
202	0xbcce332c	-0.025170885
203	0x3defc81a	0.11708088
204	0x3daf694f	0.08565008
205	0xbd86bc29	-0.065788575
206	0x3dcf46d1	0.10120929
207	0xbe0c345c	-0.13691849
208	0xbe111239	-0.14167108
209	0x3d320914	0.04346569
210	0x3d84e523	0.06489017
211	0xbb8cd060	-0.004297301
212	0x3de6136e	0.11234175
213	0x3dd8f1f1	0.10593022
214	0xbd3531b2	-0.044236846
215	0x3cd5a521	0.026079716
216	0xbe3eda06	-0.18637857
217	0x3d8d5110	0.06900227
218	0x3dbdc45f	0.092659704
219	0x3c5f7fe4	0.013641331
220	0x3d83665f	0.0641601
221	0xbcf87cec	-0.030333005
222	0xbd528d0d	-0.051404048
223	0xbd939eab	-0.07207998
224	0xbd94b99e	-0.07261966
225	0x3cd85026	0.026405405
226	0xbe09e1ee	-0.13465092
227	0xbdbaa0d0	-0.09112704
228	0xbe3f7aae	-0.18699142
229	0x3af28cf4	0.0018505142
230	0x3db1d747	0.08683639
231	0x3e11b9bb	0.14231007
232	0xbcde2688	-0.027117983
233	0x3d926175	0.07147495
234	0xbcd50b05	-0.026006231
235	0xbd3de419	-0.04636011
236	0x3e5b4440	0.21412754
237	0x3c824675	0.015902737
238	0x3d7e206d	0.062042642
239	0xbd6510f0	-0.055924356
240	0x3d22c1ca	0.039735593
241	0xbca5657f	-0.020189999
242	0xbccd781a	-0.025081683
243	0x3dcc068f	0.099621885
244	0x3db6cf49	0.08926255
245	0x3d459d0d	0.04824548
246	0xbe23dcd9	-0.16002215
247	0x3ce5d8cc	0.028057478
248	0xbd8b7251	-0.068089135
249	0xbd1a790f	-0.037713107
250	0xbd087745	-0.03331687
251	0x3dd68612	0.10474791
252	0xbc8304cc	-0.015993498
253	0x3da5acd6	0.080896065
254	0x3ca416a6	0.02003033
255	0x3ce1b075	0.027549962

lstm.bias_ih_l0 f4 [200]
0	0x3e7c39b5	0.24631388
1	0x3e94818e	0.29005092
2	0xbdeb98da	-0.115037635
3	0xbdaffe59	-0.08593435
4	0x3e09242c	0.13392705
5	0xbd80c197	-0.06286924
6	0x3d9d042e	0.07666813
7	0x3d9e8f78	0.07742208
8	0xbd96a3f9	-0.07355494
9	0x3e20c71c	0.15700954
10	0x3d9614f2	0.07328214
11	0x3cacec7c	0.021108858
12	0x3cd5012f	0.026001541
13	0x3da09c5b	0.078423224
14	0xbc864a56	-0.016392868
15	0xbad97fbd	-0.0016593855
16	0x3e842246	0.258074
17	0x3e12e27d	0.14344211
18	0x3d0cd244	0.034380212
19	0x3d87f70e	0.06638919
20	0xbe07e3d3	-0.13270502
21	0xbd5c705c	-0.05381809
22	0x3d144bd9	0.036205146
23	0x3dc6faad	0.09715781
24	0x3d53f3ab	0.05174605
25	0x3dc4a0bb	0.096009694
26	0xbdb96fde	-0.0905454
27	0xbcf5db0a	-0.030011673
28	0xbe0d8975	-0.13821967
29	0xbcfdbb20	-0.030973017
30	0x3dc158e7	0.09440785
31	0xbdb914cf	-0.09037172
32	0x3e1fa91b	0.15591852
33	0x3ce640b1	0.02810702
34	0xbd347df5	-0.044065434
35	0x3d394deb	0.045240324
36	0x3d0a323b	0.03373931
37	0x3cf77cba	0.030210841
38	0x3d8e9388	0.06961733
39	0x3de70e00	0.11281967
40	0xbcf3f7df	-0.02978128
41	0x3d786c8e	0.0606504
42	0xbadd4e18	-0.0016884236
43	0xbde1f8a5	-0.11033753
44	0xbd316768	-0.043311507
45	0x3dd3182e	0.10307346
46	0xbd79ad1e	-0.060956113
47	0xbd7933ac	-0.060840294
48	0x3db97454	0.09055391
49	0xbd0db504	-0.034596458
50	0xbe283a49	-0.16428484
51	0xbe1640e4	-0.14673191
52	0xbcf007dd	-0.029300625
53	0x3d93f39a	0.07224198
54	0x3e1157de	0.14193675
55	0xbdd51230	-0.104038596
56	0xbd56cebe	-0.05244326
57	0x3d971d05	0.07378582
58	0x3d80eaab	0.06294759
59	0x3d0db0f2	0.034592576
60	0xbd291ca7	-0.04128709
61	0x3d21a96e	0.03946822
62	0xbdf25737	-0.11833041
63	0x3d78e3a0	0.060763955
64	0xbdb899a1	-0.090136774
65	0x3d5c07a9	0.053718243
66	0xbd971010	-0.073761106
67	0x3d2e20e3	0.042511832
68	0xbb2c211f	-0.002626486
69	0xbe1dbda6	-0.15404376
70	0x3d2da839	0.042396758
71	0xbd68314d	-0.056687642
72	0xbe2e0a32	-0.16996077
73	0xbdb9c2c0	-0.09070349
74	0x3d8e4d12	0.06948294
75	0xbd734724	-0.059394017
76	0x3d54e222	0.05197347
77	0x3dbf2bf6	0.09334557
78	0x3dd090be	0.101838574
79	0x3e199039	0.14996423
80	0x3c58038a	0.0131844375
81	0xbd254d00	-0.040356636
82	0x3d645bac	0.055751488
83	0x3ce159e2	0.02750868
84	0x3db4f4d9	0.088357635
85	0x3d717bc5	0.058955926
86	0xbdb0ace2	-0.08626725
87	0x3e010db5	0.12602885
88	0x3b43a870	0.0029855035
89	0x3e0a2229	0.13489594
90	0x3da9dfc3	0.08294632
91	0xbddf39ab	-0.10899671
92	0xbe0f9540	-0.14021778
93	0x3c39638a	0.011315236
94	0x3deb8215	0.114994206
95	0xbe1c31f0	-0.15253425
96	0xbe0702e0	-0.1318469
97	0xbe0e0b4e	-0.138715
98	0x3d06363c	0.032766566
99	0x3d57281c	0.052528486
100	0x3c956e29	0.018241005
101	0xbd0094d9	-0.031391952
102	0x3d96b107	0.07357984
103	0x3d859106	0.06521802
104	0x3e2cc818	0.16873205
105	0x3d14e9f0	0.036355913
106	0xbd8265c3	-0.06367066
107	0x3d366670	0.044531286
108	0x3e0a0b54	0.13480884
109	0x3dba65ca	0.09101446
110	0xbc6eddd5	-0.014579256
111	0xbd880ab3	-0.06642666
112	0xbdac1c9a	-0.08403893
113	0x3d42fa6b	0.0476021
114	0x3d40e9af	0.047097858
115	0xbd689695	-0.05678423
116	0xbd6837b8	-0.056693763
117	0x3d3fe0a8	0.04684511
118	0x3d5cbc55	0.053890545
119	0xbc99f718	-0.018794581
120	0x3ced2224	0.028946944
121	0xbbbc16e0	-0.0057400316
122	0x3cf7ba2a	0.030240137
123	0xbd548504	-0.051884666
124	0xbdc5d2c2	-0.096593395
125	0x3d2e676e	0.042579107
126	0x3cfcf29c	0.030877404
127	0xbdfcf7c4	-0.12351945
128	0xbd8d0417	-0.06885546
129	0x3dcdf8b3	0.10057201
130	0x3dee9f1b	0.11651441
131	0xbd21d17a	-0.039506413
132	0xbdbef785	-0.09324554
133	0xbcd8a835	-0.026447395
134	0x3b56269d	0.0032676824
135	0x3d772514	0.060338095
136	0x3d6d5866	0.05794563
137	0xbc90a505	-0.017656812
138	0x3d1756ec	0.03694813
139	0x3d880c92	0.066430226
140	0x3e0e6f8e	0.13909742
141	0x3ca3f870	0.020015925
142	0xbd1eb140	-0.038743258
143	0x3da64bd7	0.08119934
144	0xbc5f7eb4	-0.013641048
145	0x3c04581a	0.008077646
146	0x3b33e343	0.002744869
147	0xbc39435c	-0.011307564
148	0x3bd25751	0.0064191003
149	0x3db50785	0.08839325
150	0x3ddb0720	0.10694718
151	0x3d400cfd	0.046887387
152	0x3e17b091	0.14813448
153	0x3c4c8854	0.012483675
154	0x3e014e3a	0.12627497
155	0x3da63191	0.08114923
156	0x3e2a0c7a	0.16606322
157	0xbbb0d0a7	-0.005395967
158	0x3dd9ab22	0.10628344
159	0x3e27cd30	0.16386867
160	0x3d07ba3c	0.03313659
161	0x3ca532f5	0.0201659
162	0xbddabcac	-0.106805176
163	0xbc5c4986	-0.013445264
164	0xbd182c3d	-0.037151564
165	0xbe10ba59	-0.14133586
166	0x3e420b17	0.18949543
167	0x3d120e5c	0.035658225
168	0xbc3c58f8	-0.011495821
169	0x399a2630	0.0002940162
170	0xba9f91b1	-0.0012174157
171	0x3e03004f	0.12793086
172	0xbe065577	-0.1311854
173	0x3e147255	0.14496739
174	0x3d7cf6c8	0.061758786
175	0x3d828c1a	0.063743785
176	0x3c89bb6c	0.016813003
177	0xbd8a3b3b	-0.067495786
178	0x3da3d889	0.08000285
179	0xbd602aa1	-0.054728154
180	0xbd5313a3	-0.0515324
181	0xbe03c1d1	-0.12866904
182	0x3dfe702c	0.12423739
183	0x3ce02285	0.02736021
184	0xbe20cabd	-0.15702339
185	0x3da80398	0.082038105
186	0x3e606919	0.21915092
187	0x3d54331f	0.051806565
188	0x3e1e3154	0.15448505
189	0xbd15aa06	-0.0365391
190	0x3e40f8eb	0.18844955
191	0x3cf4afe6	0.029869031
192	0xbe194458	-0.14967477
193	0xbdfc2b7f	-0.12312984
194	0x3ddede1b	0.10882207
195	0xbc915b5a	-0.017743755
196	0x3deaebf7	0.11470788
197	0x3d25c6b3	0.040472697
198	0x3e34938c	0.1763441
199	0x3df0d130	0.11758649

lstm.bias_hh_l0 f4 [200]
0	0x3e95099c	0.29108894
1	0x3df325d6	0.11872451
2	0x3e1ddc85	0.15416153
3	0xbc2da1ae	-0.0105976295
4	0x3ce0acf4	0.02742622
5	0x3d75b05a	0.059982635
6	0x3e2df1c1	0.16986753
7	0x3dcdc9f8	0.10048288
8	0x3d68ee66	0.05686798
9	0x3e672b60	0.2257514
10	0x3e2bccc2	0.16777328
11	0xbdb2acc5	-0.087243594
12	0xbdc30d36	-0.09524004
13	0xbce467f0	-0.027881593
14	0x3c33a4e7	0.010964609
15	0x3d2d4831	0.042305175
16	0x3e9ebb0b	0.31002077
17	0x3d1e7c12	0.03869254
18	0xbcd51e8b	-0.02601554
19	0xbdbe4ab0	-0.09291589
20	0x3dbf8d00	0.093530655
21	0xbc128ac7	-0.00894422
22	0xbdb118b5	-0.086472906
23	0xbd89b9bb	-0.067248784
24	0x3dc92217	0.09820955
25	0xbdbde295	-0.09271733
26	0x3e2e2ae0	0.17008543
27	0x3e3b58fa	0.1829566
28	0x3cb66386	0.022264253
29	0xbd99f883	-0.07518103
30	0xbe22d855	-0.15902837
31	0xbbbf350f	-0.0058351825
32	0xbb10c7d4	-0.0022091763
33	0xbda97786	-0.082747504
34	0xbda25f7c	-0.079283684
35	0x3e628075	0.22119315
36	0x3de2df3e	0.11077736
37	0xbc7c4b98	-0.015398882
38	0x3d89b895	0.06724659
39	0xbd4ef8a6	-0.0505301
40	0x3e64e0cd	0.2235138
41	0x3d7994ea	0.06093303
42	0x3de009b1	0.109393485
43	0x3d0107f3	0.03150172
44	0xbcb0d49c	-0.021585755
45	0x3d333e9a	0.043760873
46	0x3e2fc8cb	0.1716644
47	0xbd938bff	-0.072044365
48	0x3e0f3197	0.13983761
49	0xbd73a980	-0.05948782
50	0xbd2685db	-0.040655
51	0x3db04eb1	0.08608759
52	0xbdba4dbf	-0.0909686
53	0x3d225d90	0.03964001
54	0x3de44e40	0.111477375
55	0x3dbe6aa6	0.09297685
56	0x3de15d12	0.1100408
57	0xbd8182cd	-0.063237764
58	0x3d4209f3	0.04737277
59	0xbd9b2bdc	-0.07576725
60	0x3b165eb7	0.0022944638
61	0x3d9d47da	0.0767972
62	0x3defae29	0.1170314
63	0xbe126cbc	-0.14299291
64	0x3d1e63fe	0.03866958
65	0xbd2eeb57	-0.042704906
66	0x3dc61b92	0.09673227
67	0xbe0f1974	-0.13974553
68	0x3d8556d5	0.065107025
69	0x3de9d169	0.11416895
70	0x3c513e42	0.012771191
71	0xbe09296a	-0.13394704
72	0xbe0d6e2a	-0.13811556
73	0x3cc9d47a	0.02463745
74	0x3d7cfce2	0.061764605
75	0x3de7bfeb	0.11315902
76	0xbdc41137	-0.09573596
77	0x3d206102	0.039155014
78	0x3db881ce	0.09009133
79	0x3e24231f	0.16029023
80	0xbbe5eaaa	-0.0070164995
81	0x3d50c9f5	0.05097385
82	0x3dff07c9	0.12452657
83	0x3d19dfc9	0.037566934
84	0xbe28f4c1	-0.16499616
85	0xbe228a17	-0.1587299
86	0xbc8873af	-0.016656725
87	0xbda6b0f0	-0.08139217
88	0xbba7c338	-0.0051197074
89	0x3d777369	0.060412798
90	0xbd6d9cff	-0.05801105
91	0xbddfc2a5	-0.109257974
92	0xbd884a6a	-0.06654818
93	0x3cdfc1e7	0.02731414
94	0x3c1e5ef9	0.009666198
95	0x3d52ba5c	0.051447257
96	0x3b7e4974	0.0038801106
97	0xbda29183	-0.079379104
98	0xbe112151	-0.14172865
99	0xbe08ac6b	-0.13347022
100	0xbd67a322	-0.05655206
101	0x3d2cac6b	0.042156618
102	0xbd621d7a	-0.055203892
103	0xbc99ff79	-0.018798577
104	0xbd7f07c4	-0.062263265
105	0x3d0f8d56	0.035046898
106	0x3cd9f450	0.026605755
107	0xbd5195d8	-0.051168293
108	0xbdf32f06	-0.118742034
109	0xbd5ab26f	-0.053392824
110	0xbcd285c8	-0.025698557
111	0x3c8d784f	0.017269282
112	0x3da6f82e	0.08152805
113	0x3c65fb1a	0.014036918
114	0xbdd5f895	-0.10447804
115	0x3dc0e916	0.094194576
116	0xba9b98d1	-0.0011871104
117	0xbd7e4736	-0.06207963
118	0x3d974f5e	0.07388185
119	0xbcbb9af4	-0.022901036
120	0xbdf1d12e	-0.11807476
121	0xbdf5eda3	-0.12008216
122	0x3d836079	0.06414885
123	0x3db923cd	0.090400316
124	0x3de9efee	0.11422716
125	0xbbd07762	-0.006361888
126	0xbd577810	-0.052604735
127	0x3db6d450	0.08927214
128	0x3cb4306a	0.021995742
129	0xbdb0dc8b	-0.08635815
130	0xbdd46369	-0.103705235
131	0xbc7bb90b	-0.015363942
132	0x3cfb2872	0.030658934
133	0xbb928c5d	-0.004472299
134	0x3db790cb	0.08963164
135	0xbdc497d1	-0.09599269
136	0x3be575d8	0.0070025735
137	0x3dcd1ce4	0.10015276
138	0x3d44bc14	0.048030928
139	0x3d0f19ab	0.03493659
140	0xbdc8c828	-0.09803802
141	0x3d7a429a	0.061098672
142	0xbd87d823	-0.06633022
143	0xbc794cda	-0.015216077
144	0x3a81f546	0.0009915016
145	0x3d86c1d3	0.06579938
146	0xbddf444f	-0.10901701
147	0xbb83f9b6	-0.0040275706
148	0xbd5e8f20	-0.054335713
149	0x3ba1f22a	0.0049421983
150	0x3e9dff64	0.3085891
151	0x3d8157d4	0.0631558
152	0xbd68efc9	-0.056869302
153	0xbdbb9adb	-0.09160396
154	0xbce66ab3	-0.02812705
155	0x3d563b42	0.052302606
156	0xbc0d431d	-0.008621958
157	0x3e17158d	0.14754315
158	0xbcdbfd2c	-0.02685412
159	0x3ea110bc	0.3145808
160	0x3e2d90b7	0.16949736
161	0x3db1fd10	0.08690846
162	0xbcba5e55	-0.02275006
163	0xbc89d1ec	-0.016823731
164	0x3d2bd72d	0.041953254
165	0x3dcac55e	0.09900926
166	0x3df68fcf	0.12039148
167	0x3c07f648	0.008298464
168	0xbde8d32f	-0.11368405
169	0xbda73241	-0.08163882
170	0xbd22c98f	-0.039743003
171	0xbdda8893	-0.10670581
172	0x3d07d64e	0.03316336
173	0xbd7c2573	-0.06155915
174	0x3dfe61c1	0.12420989
175	0x3cd4b6b4	0.025966026
176	0x3d1479ca	0.03624896
177	0x3cbcbad8	0.023038313
178	0xbdb9f5bb	-0.090800725
179	0x3e0292cc	0.12751311
180	0xbe15091d	-0.14554258
181	0xbdc8e015	-0.09808365
182	0x3e579f09	0.21056761
183	0xbc2347f0	-0.009965882
184	0xbd56372f	-0.05229872
185	0xbc9d3c6e	-0.019193854
186	0x3e1bbe61	0.15209343
187	0x3c74cfbb	0.014942105
188	0xbcba6558	-0.022753403
189	0x3d2c8882	0.04212237
190	0x3e5914c3	0.21199326
191	0x3c03b0d4	0.008037765
192	0x3dbe7c9d	0.09301112
193	0x3e02b919	0.12765922
194	0xbe228ae7	-0.158733
195	0x3c7eb657	0.015546403
196	0x3e02424a	0.127206
197	0x3df46bbe	0.11934613
198	0x3de65fe2	0.11248757
199	0xbe0166d4	-0.12636882

lstm.weight_ih_l1 f4 [200, 50]
0	0x3ce638e0	0.028103292
1	0x3c94dd6d	0.01817199
2	0xbc90a96c	-0.017658912
3	0xbcd96d4d	-0.026541376
4	0x3d155924	0.036461964
5	0x3e15f927	0.14645825
6	0xbe2bd783	-0.1678143
7	0x3c916e57	0.01775281
8	0xbddab2a2	-0.10678603
9	0xbe29dd01	-0.16588213
10	0x3cf0c92c	0.029392801
11	0xbe23546a	-0.1595017
12	0x3d915cbb	0.07097765
13	0xbd3851a2	-0.044999726
14	0x3dc70443	0.0971761
15	0x3d6d71d7	0.057969894
16	0x3e9d0380	0.30666733
17	0xbe345f3d	-0.17614456
18	0x3dd980a8	0.10620242
19	0x3cbf5dd0	0.023360163
20	0x3d8236a0	0.06358075
21	0xbe310993	-0.17288809
22	0xbdbbbbd3	-0.09166684
23	0x3b8dc96d	0.0043269903
24	0x3da4cafd	0.080465294
25	0x3c956319	0.01823573
26	0xbe1140ef	-0.14184926
27	0x3d961fe7	0.07330304
28	0x3ddd6f15	0.10812203
29	0xbcb972eb	-0.022637805
30	0xbc1b89aa	-0.009493271
31	0x3bba388d	0.005683011
32	0xbd20645d	-0.039158214
33	0xbe0f99e0	-0.14023542
34	0x3ccde498	0.025133416
35	0xba782966	-0.0009466618
36	0xbd83d069	-0.064362355
37	0xbd7c86ac	-0.06165187
38	0xbe176c77	-0.1478747
39	0xbcdec50b	-0.027193567
40	0xbd821cee	-0.06353174
41	0xbc8fc1a7	-0.017548395
42	0xbd84ddbc	-0.06487605
43	0x3df88484	0.1213465
44	0xbd15e895	-0.03659876
45	0xbda07a3c	-0.07835814
46	0xbd8f76c2	-0.07005073
47	0xbc651c8c	-0.013983857
48	0x3e717c62	0.23582605
49	0xbe080273	-0.13282184
50	0x3deeb9ff	0.1165657
51	0xbe11c46a	-0.14235082
52	0xbd66bf06	-0.056334518
53	0x3d813275	0.06308452
54	0xbe0396b4	-0.12850457
55	0x3d67727d	0.05650567
56	0xbc94e39f	-0.018174944
57	0xbdfd632b	-0.123724304
58	0x3d22734f	0.039660748
59	0xbda9df11	-0.082945
60	0xbd0e4f8e	-0.034743838
61	0x3cba87b3	0.022769785
62	0xbcb0f42f	-0.02160081
63	0x3e0823e4	0.13294941
64	0x3e2c9fcb	0.16857831
65	0x3d2c289b	0.042030912
66	0xbb7c9b31	-0.003854465
67	0xbd84e746	-0.064894244
68	0xbde66053	-0.11248841
69	0x3e111b06	0.14170465
70	0xbd86c4a6	-0.065804765
71	0xbd95bbd8	-0.07311219
72	0xbdd28b5e	-0.102804884
73	0xbd31af67	-0.043380167
74	0x3dbd603b	0.0924687
75	0xbda657b5	-0.081221975
76	0x3c175f7c	0.009239074
77	0xbc8363ee	-0.016038861
78	0xbc2d03b4	-0.010559965
79	0xbc65eefe	-0.014034031
80	0xbdd4d30c	-0.103918165
81	0x3b2a25ae	0.00259624
82	0xbbbad8af	-0.0057021
83	0x3dcd86d2	0.100354806
84	0xbdb0b322	-0.08627917
85	0xbcefd419	-0.02927594
86	0xbe584851	-0.21121337
87	0xbda70e87	-0.08157068
88	0x3ceed6fe	0.02915525
89	0x3d428a56	0.04749521
90	0x3d264d6b	0.040601175
91	0x3de5f5e7	0.11228543
92	0x3dfe44eb	0.12415489
93	0x3c924ba0	0.017858326
94	0x3d77bdc0	0.060483694
95	0xbd6819ab	-0.056665104
96	0xbd36c3f1	-0.044620458
97	0xbbc7a14b	-0.0060922257
98	0xbd010473	-0.031498384
99	0xbe1bdf1a	-0.15221825
100	0x3d0f5bb8	0.03499958
101	0xbe2c1c3c	-0.16807646
102	0xbce43db1	-0.027861448
103	0xbda43b36	-0.08019106
104	0x3d383a58	0.044977516
105	0x3d812e41	0.0630765
106	0x3cdd8c9a	0.027044583
107	0xbd95559b	-0.072917186
108	0xbe11015e	-0.14160678
109	0x3e0fcc6a	0.14042822
110	0xbc86e494	-0.016466416
111	0xbdae2ef4	-0.08505049
112	0x3e0f5b17	0.13999592
113	0x3ca6380b	0.020290395
114	0x3d272db0	0.040815055
115	0x3d5e9b12	0.054347105
116	0x3dfe8cb6	0.12429182
117	0xbc7acc59	-0.015307509
118	0x3e071ad5	0.1319383
119	0x3d894fb2	0.06704654
120	0xbe25bdae	-0.16185638
121	0x3d87b3a5	0.06626061
122	0x3de2c5c0	0.11072874
123	0x3cb7df66	0.022445392
124	0xbcff5ba6	-0.031171631
125	0x3defc145	0.11706785
126	0x3c8d7c4d	0.017271185
127	0xbd07f749	-0.033194814
128	0xbd1a00cc	-0.037598416
129	0xbcab607e	-0.020920034
130	0x3e09c862	0.13455346
131	0xbdb7e27e	-0.08978747
132	0x3e0c104f	0.13678096
133	0x3d065a24	0.03280081
134	0x3e37da0f	0.17954277
135	0xbce0f468	-0.027460292
136	0xbdb9ed9e	-0.09078525
137	0xbd6a9846	-0.057274126
138	0xbddbec05	-0.107383765
139	0xbab47eea	-0.0013770733
140	0xbd4833f1	-0.04887766
141	0xbd7210a0	-0.059097886
142	0xbd0e19b7	-0.034692492
143	0x3d796da5	0.06089558
144	0xbde3340e	-0.11093913
145	0x3d847a5d	0.064686514
146	0xbdbe792d	-0.09300456
147	0xbe26b07e	-0.16278264
148	0x3dadf1a2	0.084933534
149	0x3d9c8bfe	0.07643889
150	0xbd680930	-0.056649387
151	0x3df8aef6	0.12142746
152	0x3d211087	0.039322402
153	0x3dc6e045	0.09710745
154	0xbd259168	-0.040421873
155	0x3e0f5e2c	0.14000767
156	0x3afaf2dc	0.0019145864
157	0x3d8d5149	0.069002695
158	0x3ce3791b	0.027767709
159	0x3d70102d	0.058609176
160	0xbd70b795	-0.058768827
161	0x3dc718e5	0.09721545
162	0x3c4307f4	0.011903752
163	0xbd7b7f8f	-0.061400946
164	0xbd386897	-0.04502162
165	0x3e04b69a	0.12960282
166	0x3d3fc0a5	0.04681458
167	0x3c50fad3	0.012755114
168	0xbca4ef49	-0.020133631
169	0xbcf7312e	-0.030174818
170	0xbdcc8093	-0.09985461
171	0x3d893558	0.06699628
172	0xbdc73182	-0.0972624
173	0xbbfc07ff	-0.007691383
174	0xbd1ce768	-0.038306624
175	0xbdbb6429	-0.091499634
176	0x3d37158c	0.044698283
177	0xbd804089	-0.06262309
178	0x3c8f71c2	0.017510299
179	0xbdc40b42	-0.0957246
180	0xbd96394e	-0.07335149
181	0xbdf4afca	-0.119475916
182	0xbd3443d5	-0.044010002
183	0x3cd2c348	0.025727883
184	0x3da3f009	0.080047674
185	0x3a1958ca	0.00058497174
186	0xbe47de2f	-0.1951835
187	0xbd87f5c8	-0.06638676
188	0x3d869c8e	0.06572829
189	0xbe11390e	-0.14181921
190	0xbd97352c	-0.073831886
191	0xbcdc849f	-0.026918707
192	0xbcc649ce	-0.024205115
193	0xbd8c9f54	-0.06866327
194	0xbde4d74b	-0.111738764
195	0xbe04694d	-0.12930794
196	0x3df099cb	0.11748084
197	0x3d796dfd	0.06089591
198	0x3e1c6857	0.15274177
199	0xbc2b11f6	-0.010441294
200	0x3de4a669	0.11164553
201	0xbcc3bfc1	-0.023895146
202	0xbca448df	-0.020054279
203	0xbdecb958	-0.11558789
204	0x3e59e279	0.21277799
205	0x3e171a3f	0.14756106
206	0x3e006990	0.12540269
207	0xbc194e2c	-0.0093570165
208	0xbdf9aa8b	-0.121907316
209	0x3dc6b732	0.097029105
210	0x3de8860b	0.11353692
211	0x3ba8b2db	0.0051482744
212	0xbd96630d	-0.07343111
213	0x3abf9c95	0.0014618809
214	0xbe2877f6	-0.16452011
215	0x3e058037	0.13037191
216	0xbdd0ee79	-0.10201735
217	0xbdc401fb	-0.0957069
218	0xbd8ff64c	-0.07029399
219	0xbe1e459c	-0.15456241
220	0xbe230496	-0.15919718
221	0x3d875e1a	0.06609745
222	0x3d681417	0.056659784
223	0x3d598e9a	0.05311451
224	0x3d177fca	0.036987104
225	0x3cf28803	0.029605871
226	0x3d820d37	0.06350177
227	0xbd9a0633	-0.07520714
228	0x3de3b440	0.11118364
229	0xbd1c5d3a	-0.038174845
230	0xbd8abcf0	-0.06774318
231	0xbbb74ecd	-0.0055941106
232	0xbe0684f0	-0.13136649
233	0xbda66324	-0.08124378
234	0x3ddf8487	0.109139495
235	0xbd91aefb	-0.07113453
236	0x3d9ce5a8	0.07660991
237	0xbd4e5333	-0.050372314
238	0xbd986d0b	-0.07442673
239	0x3dbbe6a8	0.091748536
240	0x3d036cc8	0.032086164
241	0xbddcd74e	-0.107832536
242	0x3c3a7ce5	0.011382316
243	0x3cca2b23	0.024678772
244	0xbca8e841	-0.02061856
245	0xbd7af0c2	-0.06126476
246	0x3cd24713	0.025668656
247	0xbdd512d5	-0.104039825
248	0xbe255f19	-0.16149558
249	0xbd8910c3	-0.0669265
250	0x3bff7cd5	0.0077968636
251	0xbd8d31e9	-0.06894285
252	0xbced2fde	-0.028953489
253	0x3dd880ae	0.10571419
254	0xbdefc785	-0.11707977
255	0x3e030420	0.12794542

lstm.weight_hh_l1 f4 [200, 50]
0	0x3d79ccec	0.060986444
1	0x3e0eb5ee	0.13936588
2	0xbd673ec0	-0.056456327
3	0x3d0b153f	0.03395581
4	0xbd6adc9d	-0.0573393
5	0x3e0236da	0.12716237
6	0xbba3fc31	-0.005004429
7	0xbd8c60a9	-0.06854374
8	0xbc71cdac	-0.014758509
9	0xbe0312d7	-0.12800156
10	0x3d153709	0.03642944
11	0x3d3296a5	0.043600697
12	0xbe0eadec	-0.13933533
13	0xbe0805e0	-0.13283491
14	0x3e0b12ed	0.13581438
15	0xbcdad3ef	-0.026712386
16	0x3e58583f	0.21127413
17	0x3d1fbe4e	0.038999848
18	0x3d99f7dd	0.07517979
19	0x3d016d2e	0.031598262
20	0xbd531a35	-0.051538665
21	0xbd7b208b	-0.061310332
22	0x3dec09fa	0.115253404
23	0x3df69a75	0.12041179
24	0xbd90abaf	-0.07063996
25	0xbde851b0	-0.11343706
26	0x3db7ee34	0.089809805
27	0x3e048140	0.1293993
28	0xbc5cc171	-0.013473854
29	0x3df25a1d	0.11833594
30	0xbd4b2d0e	-0.049603514
31	0xbc4476ce	-0.011991216
32	0x3cb7450b	0.02237179
33	0xbbbdc2c9	-0.0057910425
34	0x3dadbce1	0.084832914
35	0xbe052496	-0.13002238
36	0xbc3a6f0d	-0.011379016
37	0x3da5f4d6	0.081033394
38	0x3c6ae298	0.014336251
39	0xbb099d5c	-0.0020998335
40	0x3cf03bf1	0.029325457
41	0x3e0cc2f9	0.13746251
42	0xbd10609f	-0.035248395
43	0x3e03f032	0.12884596
44	0xbd88d830	-0.066818595
45	0x3c094163	0.008377406
46	0x3e0e0426	0.1386877
47	0xbdf04db8	-0.11733574
48	0x3dfa107f	0.12210178
49	0xbd581fac	-0.05276458
50	0x3d8ecf83	0.069731735
51	0xbe007257	-0.12543617
52	0x3d3082a2	0.04309333
53	0x3e02f0ff	0.12787245
54	0x3d9d22ab	0.07672628
55	0x3d47fd64	0.048825637
56	0x3e08de0c	0.13365954
57	0xbdd636ea	-0.10459693
58	0x3d838918	0.06422633
59	0xbb6a3f12	-0.003574316
60	0xbcc7e221	-0.024399819
61	0xba0ad1fe	-0.00052955735
62	0x3d84ea69	0.06490023
63	0x3e1af99b	0.1513428
64	0xbd88c59a	-0.066783145
65	0xbbc16860	-0.005902335
66	0x3e647c55	0.22313054
67	0x3e496922	0.19669011
68	0x3e459bd2	0.19297722
69	0xbdabb947	-0.08384948
70	0xbd7ba0ef	-0.061432775
71	0xbd4c7492	-0.049915858
72	0xbc9c7ab9	-0.019101487
73	0x3dd1c8b6	0.10243361
74	0x3e10e1a8	0.14148581
75	0x3dbcc1bc	0.092166394
76	0x3e6549cf	0.22391437
77	0xbd8a0e01	-0.06740952
78	0x3d701929	0.058617745
79	0x3e1c5c9e	0.15269706
80	0x3d1b0097	0.03784236
81	0xbe3b11b1	-0.18268467
82	0x3d2ab24c	0.041673943
83	0x3deab01d	0.11459372
84	0x3d08da0c	0.03341107
85	0xbd0a63bc	-0.03378652
86	0xbb8cdf54	-0.0042990837
87	0xbd4f905e	-0.05067479
88	0x3ce2d4bb	0.027689328
89	0x3d4332b7	0.047655787
90	0xbe253713	-0.1613429
91	0x3ddd5374	0.10806933
92	0xbbd84187	-0.0065996083
93	0x3d5a04b9	0.05322716
94	0x3dab47c2	0.08363296
95	0x3d473e14	0.048643187
96	0xbddbae44	-0.10726598
97	0x3ce6255e	0.02809399
98	0x3e306b8e	0.17228529
99	0xbd708d74	-0.05872865
100	0x3d375e11	0.044767443
101	0x3d489d93	0.0489784
102	0x3e02176b	0.12704246
103	0xbda8341e	-0.082130656
104	0xbe9790c5	-0.29602638
105	0x3ddd26ae	0.10798393
106	0x3db57c10	0.08861554
107	0xbdd140fb	-0.10217472
108	0x3d866937	0.06563037
109	0x3e05c5ae	0.1306369
110	0xbdaf7a24	-0.08568218
111	0x3dddc2ba	0.10828157
112	0x3d7b63a6	0.06137433
113	0x3d583c6d	0.052792
114	0x3ddd6f72	0.10812272
115	0x3dc60b3d	0.09670112
116	0x3ea1c964	0.3159896
117	0x3d9adceb	0.07561668
118	0x3d6656c0	0.056235075
119	0x3c9d99ad	0.019238317
120	0xbd7377cf	-0.05944043
121	0xbe9b63f5	-0.303497
122	0x3d2c959b	0.042134862
123	0x3e4757b5	0.19467051
124	0xbbdfc3c3	-0.0068287565
125	0xbd8893ee	-0.0666884
126	0x3d919c52	0.07109894
127	0xbd8382fc	-0.06421468
128	0x3ded592c	0.11589274
129	0xbd92c99a	-0.07167359
130	0x3dfd6cfd	0.123743035
131	0xbc43a26f	-0.011940583
132	0xbde0b05d	-0.109711386
133	0xbb2e0f6b	-0.0026559483
134	0x3df0539a	0.11734696
135	0xbd91b228	-0.07114059
136	0xbddb4b2b	-0.107076965
137	0xbcafc7a1	-0.021457495
138	0xbdb773a7	-0.08957606
139	0x3e0798cc	0.13241881
140	0xbd8f5335	-0.06998292
141	0x3d9ebff2	0.077514544
142	0xbe8c9cbf	-0.27463338
143	0x3d61e63b	0.055151206
144	0x3c994cfa	0.018713463
145	0x3da39af4	0.07988539
146	0x3ce9bca7	0.02853234
147	0x3db0b2b0	0.08627832
148	0x3c8fb7c5	0.017543683
149	0xbe0fa3f4	-0.14027387
150	0xbcad660f	-0.02116683
151	0xbcb64da1	-0.022253813
152	0xbde14598	-0.10999602
153	0x3d95fb5a	0.07323332
154	0x3dc65887	0.09684854
155	0xbc7b8ee1	-0.015353889
156	0x3dbca515	0.092111744
157	0x3d070721	0.032965783
158	0xbdea9162	-0.11453511
159	0xbd91250a	-0.07087143
160	0xbcceb21d	-0.025231415
161	0xbe04f20f	-0.12982963
162	0xbd1fdbed	-0.039028097
163	0xbdf6e7dc	-0.120559424
164	0xbda63efc	-0.08117482
165	0xbdcd9950	-0.10039008
166	0xbd389a0c	-0.045068786
167	0xbd645cee	-0.055752687
168	0x3dc39c7b	0.09551331
169	0xbdcd5e02	-0.10027696
170	0xbe097fae	-0.13427612
171	0xbd62d081	-0.055374626
172	0xbd840d85	-0.06447891
173	0x3d85aed1	0.06527484
174	0x3c90f8b3	0.017696714
175	0xbcaaf18e	-0.020867135
176	0xbd76fbf0	-0.06029886
177	0xbd6aa29f	-0.057283994
178	0xbd217e97	-0.039427366
179	0x3d8e8b53	0.06960168
180	0xbd0073a3	-0.03136028
181	0xbe43fb58	-0.19138849
182	0xb9fca639	-0.0004818903
183	0xbcaa0470	-0.02075407
184	0x3db40ffd	0.08792112
185	0x3e196e49	0.14983477
186	0xbe12d001	-0.1433716
187	0xbdfd4d67	-0.12368279
188	0xbd9469a4	-0.07246712
189	0xbab36bb6	-0.0013688717
190	0x3dc26211	0.09491361
191	0x3cb52c99	0.022115992
192	0x3b81e4ed	0.0039640577
193	0xba9fe300	-0.0012198389
194	0xbd8ae528	-0.06781989
195	0xbdddea49	-0.10835702
196	0xbdb3c49e	-0.08777736
197	0x3d2fe46f	0.04294246
198	0xbd2139a1	-0.0393616
199	0x3e16f388	0.14741337
200	0x3c0d3344	0.00861818
201	0x3e30ef9f	0.17278908
202	0x3d825cea	0.06365378
203	0xbe24d517	-0.16096912
204	0x3d6737d2	0.05644972
205	0x3c9ccd9c	0.019141011
206	0xbe391a37	-0.18076406
207	0x3ea64df8	0.3248136
208	0xbd4defae	-0.050277404
209	0xbdf0bcd0	-0.11754763
210	0x3e03f128	0.12884963
211	0x3de50f3d	0.11184547
212	0xbdfe9c1c	-0.12432119
213	0xbd9e1354	-0.0771853
214	0x3d7058fe	0.05867862
215	0xbbe8cfd5	-0.0071048536
216	0xbdbe1d2f	-0.0928291
217	0xbe1362e9	-0.143932
218	0x3d8b69e0	0.068073034
219	0x3d7e5668	0.062094122
220	0x3d9c45e3	0.07630517
221	0x3db4723c	0.08810851
222	0xbd03ac18	-0.032146543
223	0xbda29c4b	-0.07939967
224	0x3bfa246f	0.0076337378
225	0xbe00b1dc	-0.12567848
226	0x3e012ada	0.12614003
227	0xbe31720e	-0.17328665
228	0x3ce77962	0.028256122
229	0xbd7e88ac	-0.06214206
230	0x3c309f1d	0.010780123
231	0xbdd46dc5	-0.103724994
232	0xbd1cbc51	-0.03826553
233	0x3db02d04	0.08602336
234	0xbe1f0a1b	-0.15531199
235	0xbd96230e	-0.07330905
236	0x3de09123	0.10965183
237	0x3b5a3db8	0.0033300947
238	0x3c8be8a1	0.0170787
239	0xbd9d7959	-0.07689161
240	0x3c87632a	0.016526777
241	0xbe67063e	-0.22560975
242	0x3d8d0848	0.06886345
243	0xbd55e800	-0.052223206
244	0xbda19f9a	-0.0789177
245	0xbc1ff20c	-0.009762298
246	0xbc837e70	-0.016051501
247	0x3e0e36fe	0.13888165
248	0xbe187ea7	-0.14892064
249	0xbd0907e8	-0.033454806
250	0xbe04dce5	-0.1297489
251	0xbd2c892d	-0.04212301
252	0x3dd3c8da	0.10341044
253	0x3d59e4ea	0.053196825
254	0xbcad3f2d	-0.021148289
255	0xbc56cd3f	-0.013110458

lstm.bias_ih_l1 f4 [200]
0	0x3d12bc0e	0.035823874
1	0xbdf309d7	-0.11867111
2	0x3dcbbd16	0.09948175
3	0xbdd2d209	-0.10293967
4	0x3d818bdf	0.063255064
5	0xbd77dfb9	-0.060516093
6	0x3ea29ea4	0.31761658
7	0xbe054e04	-0.13018042
8	0x3e141994	0.14462882
9	0xbbda1f46	-0.00665656
10	0x3e4b75a6	0.19869098
11	0x3da08c67	0.078392796
12	0x3e0643f4	0.1311186
13	0x3d649a31	0.05581111
14	0xbd4770d5	-0.04869159
15	0xbbfcb0d2	-0.0077115083
16	0x3d1ee305	0.03879072
17	0x3dcdebe7	0.100547604
18	0x3e938d3c	0.2881869
19	0xbdd56e5d	-0.10421441
20	0x3dba59e6	0.09099178
21	0x3c87a3ff	0.016557692
22	0x3d99cb3d	0.07509468
23	0xbe0ee7c0	-0.13955593
24	0x3e05ede0	0.13079023
25	0xbdce075f	-0.1006
26	0x3dbd183d	0.09233139
27	0x3dc7fa37	0.097645216
28	0x3dad0016	0.08447282
29	0xbd1ede44	-0.038786188
30	0xbdb27283	-0.087132476
31	0x3e84f010	0.25964403
32	0x3dd05aa1	0.10173536
33	0xbccf4379	-0.025300728
34	0xbdfa4c11	-0.1222154
35	0xbe0c240f	-0.1368563
36	0x3e0c0c68	0.13676608
37	0xbda8f807	-0.082504325
38	0x3e10cb66	0.1414009
39	0xb960feb8	-0.00021457195
40	0x3e9a628e	0.30153316
41	0x3eb7ac8f	0.3587384
42	0x3e589fdc	0.21154732
43	0x3eef8506	0.46781176
44	0x3cc1c89d	0.02365523
45	0x3dc296a7	0.09501391
46	0xbda6475f	-0.08119082
47	0x3d6b35cf	0.057424363
48	0x3dc3c537	0.095591
49	0xbd8db358	-0.06918973
50	0x3d6094b8	0.05482933
51	0xbd55d89b	-0.052208524
52	0x3d65941f	0.056049462
53	0x3dcec407	0.10095983
54	0x3d78f2bd	0.06077837
55	0x3d805261	0.062657125
56	0xbe32f628	-0.17476714
57	0x3d9b4aa7	0.07582598
58	0x3c6dc204	0.014511589
59	0xbdab540c	-0.0836564
60	0xbdf6bc6e	-0.12047659
61	0xbdab117c	-0.08352944
62	0xbd79edc1	-0.061017755
63	0x3dd1b5fc	0.10239789
64	0xbdf96921	-0.12178255
65	0x3ce9c3ea	0.028535802
66	0xbe27cab7	-0.16385923
67	0xbc9a09c8	-0.018803492
68	0xbe2aa90d	-0.1666605
69	0x3cbe0621	0.023196282
70	0xbe0da383	-0.13831906
71	0xbe0cbff9	-0.13745107
72	0xbdf50521	-0.11963869
73	0x3d857cb6	0.06517927
74	0xbd8da107	-0.06915479
75	0xbd5058c0	-0.05086589
76	0xbe07d71c	-0.13265651
77	0xbc2bcc37	-0.0104857
78	0xbd5f865c	-0.054571494
79	0xbc55affe	-0.013042448
80	0x3d8b19bf	0.0679202
81	0xbdef5b6f	-0.116873614
82	0xbda6ef9d	-0.08151171
83	0xbd9e74f9	-0.077371545
84	0x3ddff138	0.10934681
85	0x3d27c691	0.040960852
86	0xbd8556ec	-0.0651072
87	0xbde560f6	-0.112001345
88	0x3cddba6f	0.027066438
89	0x3d749464	0.05971183
90	0x3c50ff16	0.01275613
91	0x3d762375	0.06009241
92	0xbda0a982	-0.07844831
93	0xbe807f4c	-0.2509712
94	0x3d8964e0	0.067086935
95	0xbda665ee	-0.0812491
96	0x3d854626	0.065075204
97	0x3ce2cc00	0.027685165
98	0xbdcb75db	-0.099345885
99	0xbe167a95	-0.14695199
100	0xbd50998f	-0.050927695
101	0xbce7c0b8	-0.028290138
102	0xbd5279e7	-0.051385786
103	0xbdc41498	-0.095742404
104	0xbcc23dbd	-0.02371108
105	0xbdee0b48	-0.116232455
106	0x3db64053	0.088989876
107	0xbdcf1b9a	-0.101126865
108	0x3c9dbca6	0.019254994
109	0xbdac9fd1	-0.0842892
110	0xbded5309	-0.11588103
111	0x3e064956	0.13113913
112	0x3cd85405	0.026407251
113	0xbbb35764	-0.0054730643
114	0xbc562a65	-0.013071631
115	0xbdbb9f9a	-0.09161301
116	0xbd02bc2b	-0.031917732
117	0xbd901400	-0.07035065
118	0xbb91b263	-0.004446314
119	0x3dfa656d	0.12226377
120	0xbdbe8883	-0.09303381
121	0xbd20e316	-0.039279066
122	0x3cc6be0f	0.024260549
123	0x3d002865	0.031288523
124	0xbde70f67	-0.11282235
125	0xbd2049c3	-0.039132845
126	0x3c025cb6	0.007956674
127	0xbc8aff08	-0.016967312
128	0xbc984795	-0.01858882
129	0x3c67f47b	0.01415741
130	0x3d822e08	0.06356436
131	0xbd9e7729	-0.07737572
132	0xbc9f754e	-0.019465115
133	0x3ccde61b	0.025134137
134	0x3de629b1	0.11238421
135	0xbdfad4ed	-0.122476436
136	0x3d36bc71	0.044613305
137	0xbdc5e60b	-0.09663018
138	0xbccd4fe4	-0.025062509
139	0xbda7c709	-0.0819226
140	0x3deb9d2b	0.11504587
141	0x3db806db	0.089856826
142	0xbd562e71	-0.052290384
143	0x3d910c1d	0.070823886
144	0x3da4d111	0.08047689
145	0xbc477433	-0.0121737
146	0x3de0b50b	0.10972031
147	0x3d1d93c1	0.038470987
148	0xbd19bf5b	-0.037536006
149	0xbda36a89	-0.07979304
150	0x3dcad2ae	0.09903465
151	0xbdb2d98a	-0.087328985
152	0xbd096d7a	-0.03355167
153	0xbe06ae78	-0.13152492
154	0x3deda15c	0.116030425
155	0xbdc449bf	-0.095843785
156	0x3ea7b757	0.32757065
157	0x3db56173	0.088564776
158	0x3dd8f509	0.10593612
159	0xbdf7f292	-0.121068135
160	0x3d2bc8f0	0.041939676
161	0x3bae1604	0.005312683
162	0x3da4b2e9	0.08041937
163	0x3e7c0df1	0.24614693
164	0xbe090fbd	-0.1338491
165	0x3e461d43	0.193471
166	0x3e68f114	0.22748214
167	0xbd975f35	-0.07391206
168	0x3e8862ff	0.26638028
169	0x3df2f86c	0.11863789
170	0x3d92bf5d	0.07165406
171	0x3d716c40	0.058941126
172	0x3d82b1cc	0.06381568
173	0xbde6e603	-0.1127434
174	0x3dfdb8fe	0.123888
175	0xbde2ffb8	-0.11083931
176	0x3e0f4e68	0.13994753
177	0x3df00646	0.117199466
178	0xbd0030b6	-0.031296454
179	0xbd3dc45d	-0.046329845
180	0x3cef2ec9	0.029197114
181	0x3e399656	0.18123755
182	0xbd8f847e	-0.07007693
183	0xbd9ebdd3	-0.0775105
184	0x3c610a88	0.013735421
185	0xbde9fa6b	-0.114247166
186	0x3c829be8	0.015943483
187	0xbe22b2c8	-0.15888512
188	0xbce3ec3c	-0.027822606
189	0xbdb87f30	-0.09008634
190	0x3e22c2cc	0.15894622
191	0x3e6e45c2	0.23268798
192	0x3e5f42f2	0.21802881
193	0x3f024cbf	0.50898355
194	0xbdf00dc2	-0.11721374
195	0xbe06055a	-0.13087979
196	0x3e1a97d6	0.15096983
197	0x3e173e56	0.14769873
198	0x3d1c6070	0.038177907
199	0xbdbf3f3a	-0.093382314

lstm.bias_hh_l1 f4 [200]
0	0x3e165f76	0.14684853
1	0xbc152ef8	-0.0091054365
2	0xbda5f4aa	-0.081033066
3	0x3d5f5580	0.0545249
4	0x3bc10026	0.0058899103
5	0xbcf1330d	-0.029443288
6	0x3ea15c3e	0.31515688
7	0x3d2d0cc2	0.042248495
8	0x3e040df0	0.12895942
9	0xbd9513d7	-0.07279175
10	0x3ce3dc8f	0.027815131
11	0x3c64e928	0.013971604
12	0xbcb151f5	-0.021645525
13	0x3e7423ed	0.2384183
14	0xbdd85d65	-0.105646886
15	0x3e0e555b	0.13899748
16	0xbc8745b5	-0.016512731
17	0xbe098ce1	-0.13432647
18	0x3e8d628d	0.2761425
19	0x3dd110e9	0.102083035
20	0x3da95b77	0.08269399
21	0x3e132164	0.14368206
22	0x3dadb07f	0.084809296
23	0xbdd5367c	-0.10410783
24	0x3d196e31	0.037458602
25	0xbd71cce0	-0.059033275
26	0x3da3e6eb	0.080030285
27	0x3db0a84d	0.08625851
28	0x3dc0e666	0.09418945
29	0x3d82af9c	0.06381151
30	0xbdd506f7	-0.10401719
31	0x3e06cb69	0.13163532
32	0x3b702b4b	0.0036646898
33	0xbe21c999	-0.1579956
34	0xbd5e5dbf	-0.054288622
35	0xbdffa78c	-0.12483129
36	0x3e19bb40	0.15012836
37	0x3ddb983c	0.10722396
38	0x3b8ce452	0.004299679
39	0xbcbf8e99	-0.023383426
40	0x3de945f5	0.11390296
41	0x3e636e52	0.22210053
42	0x3e66dedc	0.22545952
43	0x3eeda626	0.46415824
44	0xbd9ca40b	-0.07648476
45	0x3dbbaacb	0.091634355
46	0xbc2cbd21	-0.010543139
47	0x3e4747a9	0.1946093
48	0x3dbb5be1	0.09148384
49	0xbe0dc032	-0.13842848
50	0xbdff512a	-0.12466653
51	0xbde08d42	-0.10964443
52	0x3df7c557	0.120981865
53	0x3db4eab7	0.08833831
54	0xbd65ba79	-0.056086037
55	0x3d2b1f33	0.0417778
56	0xbc792b2c	-0.015208047
57	0x3cf838ef	0.030300586
58	0xbe361d8f	-0.17784713
59	0xbd92f0da	-0.07174845
60	0xbc21eef6	-0.009883633
61	0x3d71d0bf	0.059036966
62	0x3c527c8b	0.012847076
63	0xbdf82372	-0.12116136
64	0xbd0de623	-0.034643304
65	0xbd37ea76	-0.044901334
66	0xbaf9e229	-0.0019064593
67	0x3db07344	0.08615735
68	0xbd812926	-0.063066766
69	0x3dee1939	0.116259046
70	0xbd908faf	-0.070586555
71	0xbe243a35	-0.16037829
72	0xbd374050	-0.044739068
73	0xbde5f4fa	-0.11228366
74	0x3dbad967	0.091234975
75	0x3cc5ee77	0.02416156
76	0x3d823a90	0.06358826
77	0xbe115ec2	-0.14196303
78	0xbe3fed1e	-0.18742797
79	0xbd81a8b9	-0.063310094
80	0x3db03aed	0.08604989
81	0xbd101f44	-0.035186067
82	0xbddd0b3d	-0.10793159
83	0x3d20dc24	0.039272442
84	0x3caceae6	0.021108102
85	0x3ddb7fb3	0.10717716
86	0xbc40781e	-0.011747388
87	0x3d6cc9ef	0.057809766
88	0x3ca73427	0.02041061
89	0x3cc69b0a	0.02424385
90	0xbd74c0e7	-0.05975428
91	0xbdfe88da	-0.12428446
92	0xbe1d787a	-0.1537799
93	0xbe28129c	-0.16413349
94	0x3df57125	0.11984471
95	0xbcedd520	-0.02903229
96	0x3dc7b0e0	0.09750533
97	0x3d95612f	0.07293927
98	0xbe423773	-0.18966465
99	0xbe0989b4	-0.13431436
100	0x3d9a6359	0.0753848
101	0x3d39f676	0.04540106
102	0x3da0eec0	0.07858038
103	0xbd109d8c	-0.0353065
104	0xbdc36420	-0.09540582
105	0x3d997d08	0.07494551
106	0xbd80ed94	-0.062953144
107	0x3d85f70a	0.065412596
108	0x3d6cabc2	0.05778099
109	0x3dba2645	0.090893306
110	0x3dc50f47	0.096220545
111	0xbe05fb77	-0.13084207
112	0xbdfa6e2e	-0.12228046
113	0x3db5aa06	0.0887032
114	0x3d9279dc	0.07152149
115	0xbca027ec	-0.019550286
116	0x3d21a89a	0.03946743
117	0x3de23776	0.110457346
118	0x3ccff839	0.025386916
119	0x3e011816	0.12606844
120	0x3e00c0f4	0.12573606
121	0xbd8a32c6	-0.067479655
122	0xbd5bad99	-0.053632353
123	0x3da545f0	0.0806998
124	0x3dd1e90f	0.102495305
125	0xbdb065e8	-0.08613187
126	0x3d7137f6	0.05889126
127	0xbd16b31e	-0.036791913
128	0x3bcc5e52	0.00623683
129	0xbd31b78b	-0.04338793
130	0xbd580c3c	-0.052746043
131	0x3dea587d	0.11442659
132	0xbde0873b	-0.10963293
133	0xbc68031d	-0.0141608985
134	0xbe00d49c	-0.12581104
135	0x3db0e38b	0.086371504
136	0x3df78698	0.120862186
137	0x3cf8b8cb	0.030361554
138	0xbc30fe4b	-0.010802816
139	0xbce027ad	-0.027362669
140	0xbdd91a5b	-0.1060073
141	0xbdfee6e8	-0.124463856
142	0xbd5a6f09	-0.053328548
143	0xbd8e4bd7	-0.06948059
144	0x3bec9a03	0.007220508
145	0xbd98d46a	-0.0746239
146	0xbcf997e0	-0.030467927
147	0xbd575a73	-0.052576493
148	0xbd4bd117	-0.04975995
149	0xbd997ef3	-0.07494917
150	0x3e214a0b	0.15750901
151	0xbb9d8c91	-0.0048080166
152	0x3d675ad8	0.05648312
153	0x3ad26b7e	0.0016053764
154	0x3e0564e2	0.13026765
155	0xbd229cba	-0.039700247
156	0x3e1e2fee	0.15447971
157	0xbd8236fd	-0.063581444
158	0x3e1a01f1	0.15039803
159	0xbd566926	-0.05234637
160	0x3ddeba47	0.10875373
161	0x3db7b221	0.08969522
162	0x3e06aaff	0.13151167
163	0xbd0fecff	-0.035138126
164	0xbe0a4489	-0.13502707
165	0x3d6f9d69	0.058499727
166	0x3e433d22	0.19066289
167	0xbd0e8766	-0.034797095
168	0x3e133250	0.14374661
169	0xbde3d8c2	-0.11125328
170	0x3da8c4bf	0.08240651
171	0x3e872564	0.26395714
172	0x3df3db38	0.11907047
173	0x3ba11f8b	0.0049170903
174	0xbd18da94	-0.037317827
175	0xbda97afa	-0.08275409
176	0x3d9b7230	0.07590139
177	0xbccf7cb9	-0.025328027
178	0xbd88fbac	-0.066886276
179	0x3e2f2f5f	0.17107914
180	0xbcd07f33	-0.025451278
181	0x3e18bb7c	0.1491527
182	0xbc53c8f7	-0.012926332
183	0xbe0d49a7	-0.13797627
184	0xbdc2a29d	-0.09503672
185	0x3d8d4b25	0.06899098
186	0xbd8330a3	-0.06405761
187	0x3dc3c75a	0.09559508
188	0xbd1af3bd	-0.037830103
189	0xbdbbd92a	-0.0917228
190	0x3e919625	0.28434864
191	0x3eabe6e8	0.33574605
192	0x3e3b263c	0.18276304
193	0x3f1a254a	0.6021315
194	0x3dae80b8	0.08520645
195	0xbd513b52	-0.051081963
196	0x3cb2a9d8	0.021809503
197	0xbda36f6e	-0.07980238
198	0xbd8bbc55	-0.06823031
199	0x3c7d8cb3	0.01547544

fc.weight f4 [1, 50]
0	0x3df34343	0.118780635
1	0x3a9b189c	0.0011832896
2	0xbe0e41a6	-0.1389223
3	0xbcedb2cc	-0.029015921
4	0x3e089f92	0.13342121
5	0xbdd31972	-0.10307588
6	0xbe0ec613	-0.13942747
7	0x3d02b97c	0.031915173
8	0xbd9a0f06	-0.07522397
9	0xbe1c7dab	-0.15282314
10	0xbe506c1e	-0.20353743
11	0x3e14bcb5	0.14525111
12	0xbe317ced	-0.17332812
13	0x3dd108e9	0.102067776
14	0xbd1fdbf9	-0.03902814
15	0xbe06db85	-0.13169678
16	0xbe321afa	-0.17393103
17	0x3cebd786	0.028789293
18	0xbdc172c8	-0.09445721
19	0x3e00a980	0.12564659
20	0x3df3faef	0.11913096
21	0x3e2981bc	0.16553396
22	0xbda66491	-0.0812465
23	0xbd74528a	-0.059649028
24	0xbd3be0d8	-0.045868725
25	0xbdb652ce	-0.089025125
26	0xbdfef58f	-0.1244918
27	0xbe09a235	-0.13440783
28	0x3c94a156	0.018143337
29	0xbe330d55	-0.17485555
30	0x3e0aaad8	0.13541734
31	0x3e4e7225	0.2016073
32	0xbe2c359a	-0.16817322
33	0xbd393379	-0.045215104
34	0xbe22a2e2	-0.15882447
35	0xbda3d820	-0.08000207
36	0x3e253678	0.1613406
37	0x3bddc1ea	0.006767501
38	0x3e04317c	0.12909502
39	0xbdfcaa3c	-0.12337157
40	0x3e6b8f52	0.23003891
41	0xbe2bb308	-0.16767514
42	0x3e34868e	0.17629454
43	0xbe06ea2f	-0.13175271
44	0x3d8267af	0.06367432
45	0xbe193a27	-0.1496359
46	0x3e1d0d7e	0.15337178
47	0x3ddc1c49	0.107475825
48	0xbdaefdd7	-0.0854451
49	0xbd713fe2	-0.058898814
