with_prediction/with_prediction/trial_with.pth (torch, 61218 bytes, 11 tensors)

fc1.weight f4 [128, 12]
0	0xbeb1df71	-0.34740785
1	0xbc4a52da	-0.012348855
2	0xbdc916ce	-0.09818803
3	0xbccb9c7e	-0.024854895
4	0x3e4ac5ab	0.19801967
5	0xbe0d787f	-0.13815497
6	0x3d35c44c	0.044376656
7	0x3f9c9bf9	1.2235099
8	0x3eeec4d7	0.46634552
9	0xbfe590b0	-1.793478
10	0x3e80a8a1	0.25128654
11	0xbdbccb9a	-0.092185214
12	0xbe4b5fbf	-0.19860743
13	0x3e25a4cf	0.1617615
14	0xbd1ab90b	-0.037774127
15	0xbc7f777b	-0.015592451
16	0xbe3a1e8e	-0.18175718
17	0x3dc4cf22	0.0960982
18	0xbd9af627	-0.07566481
19	0x3f8f3de4	1.1190763
20	0x3ec04324	0.37551224
21	0xbf7e364f	-0.9930162
22	0xbe2016b9	-0.15633668
23	0x3e88d0ed	0.26721898
24	0xbe48b0fd	-0.19598766
25	0x3e41e507	0.18935023
26	0xbe78390d	-0.24240513
27	0x3de03429	0.10947449
28	0xbe57f4b5	-0.21089442
29	0xbe6f453b	-0.23366253
30	0x3d655d5b	0.055997234
31	0x3fb58f9c	1.4184451
32	0x3f5ec57b	0.8702008
33	0xbffa798b	-1.9568342
34	0x3e3735fc	0.17891687
35	0x3e4d03e4	0.20021015
36	0xbe3a7042	-0.18206885
37	0x3d93b47a	0.072121575
38	0xbdb9b1b9	-0.09067101
39	0xbe65c891	-0.22439791
40	0xbe2ec5ba	-0.17067614
41	0xbe91a4ec	-0.28446138
42	0xbde0dad4	-0.10979238
43	0x3f98042a	1.1876271
44	0x3f1ce3b6	0.6128496
45	0xbfba5369	-1.4556705
46	0x3d010715	0.031500895
47	0xbd04d636	-0.03243085
48	0xbe9823a1	-0.29714683
49	0xbe6728dc	-0.2257418
50	0xbd109907	-0.03530219
51	0xbe86b5c8	-0.26310563
52	0x3dfbd9b8	0.12297386
53	0xbdbf12cd	-0.09329758
54	0xbe4db5b5	-0.20088847
55	0x3d9ef836	0.07762186
56	0xbe58ddfc	-0.2117843
57	0xbe294e82	-0.16533855
58	0xbeb3b32a	-0.3509763
59	0x3dacf04e	0.08444272
60	0xbe02f54c	-0.12788886
61	0xbe3a298b	-0.1817991
62	0xbc9d3815	-0.019191781
63	0x3dddf78c	0.108382314
64	0x3e4debd2	0.2010949
65	0xbc9fffcc	-0.019531153
66	0xbe8f88f6	-0.2803418
67	0x3fa607ca	1.2971127
68	0x3def8d9a	0.1169693
69	0xbf81d2b8	-1.0142431
70	0xbdc99543	-0.098429225
71	0x3e169e58	0.14708841
72	0xbe42afea	-0.19012418
73	0xbe454776	-0.19265541
74	0x3e0dfcf2	0.13866022
75	0xbdb96314	-0.09052101
76	0xbdad254a	-0.08454378
77	0x3e1cc136	0.15308079
78	0xbe619334	-0.2202881
79	0x3e6fe544	0.23427302
80	0xbe93653c	-0.28788173
81	0x3e759cf0	0.23985648
82	0xbdf223fc	-0.1182327
83	0xbe73c21a	-0.23804513
84	0x3e70d443	0.23518471
85	0xbc9b20ca	-0.018936533
86	0x3e859048	0.2608664
87	0x3e09ed0b	0.13469331
88	0xbb90a7c0	-0.0044145286
89	0xbd8f6a2c	-0.070026726
90	0x3e414b27	0.18876325
91	0x3e5f16ef	0.21786092
92	0xbce1c3c0	-0.027559161
93	0x3e2364e2	0.15956452
94	0xbdf628d4	-0.12019506
95	0x392340d3	0.0001556904
96	0xbe1e214c	-0.15442389
97	0xbe1af29f	-0.15131615
98	0x3e69d538	0.22835243
99	0x3e96f29f	0.2948198
100	0x3e87a71a	0.26494676
101	0x3cc8e367	0.024522496
102	0xbe234be2	-0.15946916
103	0x3e7d014e	0.24707529
104	0x3ed68f51	0.41906217
105	0x3d40653a	0.046971537
106	0xbe69d5a6	-0.22835407
107	0x3e9b9f29	0.30394867
108	0xbdcaf51d	-0.09910033
109	0x3e206060	0.15661764
110	0xbe923e60	-0.28563213
111	0xbe22ffb3	-0.15917854
112	0xbe955807	-0.29168722
113	0xbcc81bd6	-0.024427336
114	0xbdf8e8a5	-0.121537484
115	0xbe09a9bd	-0.13443656
116	0xbf0dd9ef	-0.55410665
117	0x3f78424a	0.9697615
118	0x3e8902cc	0.26759946
119	0xbea8b12a	-0.32947665
120	0xbeba48f6	-0.3638379
121	0xbea76824	-0.3269664
122	0xbe19c532	-0.1501663
123	0xbe96a62e	-0.2942366
124	0x3d96e0fc	0.07367131
125	0xbdb9a1e8	-0.09064084
126	0x3d2da628	0.042394787
127	0x3fa3469e	1.2755926
128	0x3ef138b7	0.47113582
129	0xbfdfe5b6	-1.7491977
130	0x3e6ad9a2	0.22934583
131	0xbdd32ad8	-0.10310906
132	0xbe8d0e3c	-0.27549922
133	0xbe2a6338	-0.16639411
134	0xbe206f76	-0.15667519
135	0xbe59e53e	-0.21278855
136	0x3d2f81b1	0.042848293
137	0xbcce495a	-0.025181461
138	0x3e411d4b	0.1885883
139	0x3f85e583	1.0460666
140	0x3e5fac6e	0.2184312
141	0xbfbb9512	-1.4654868
142	0x3e724715	0.23659928
143	0xbe1d6474	-0.15370351
144	0xbd77093f	-0.060311552
145	0xbe863c88	-0.26218057
146	0xbd8bf027	-0.06832915
147	0xbe951bb1	-0.2912269
148	0x3c10cc6f	0.008837803
149	0xbe86f446	-0.2635824
150	0xbcc37b37	-0.023862464
151	0x3f8a9734	1.0827394
152	0x3f41c412	0.75689805
153	0xbfb84bbe	-1.4398115
154	0x3d8257f7	0.06364434
155	0xbd403eda	-0.04693494
156	0xbe7d58c8	-0.24740899
157	0xbe7fcf24	-0.24981362
158	0xbd88e073	-0.06683435
159	0xbe3e68be	-0.18594643
160	0x3e2047dc	0.15652412
161	0x3e4a213c	0.1973924
162	0x3e07fb37	0.13279425
163	0x3f375e8e	0.71628654
164	0x3eaefefd	0.34178916
165	0xbf94cbd4	-1.1624703
166	0x3d9cd799	0.076583095
167	0xbda24d72	-0.07924928
168	0xbe00e853	-0.12588625
169	0x3ead0458	0.33792377
170	0x3c9434ff	0.018091677
171	0xbd41caf1	-0.04731268
172	0xbcf8b30e	-0.030358817
173	0xbe371238	-0.17878044
174	0xbc4f5f88	-0.012657054
175	0x3cef0538	0.029177293
176	0x3e923395	0.2855498
177	0x3c89b33b	0.016809097
178	0xbe83d1ef	-0.25746104
179	0x3ead70ae	0.3387503
180	0x3e7ae013	0.2449954
181	0x3e0d731e	0.13813445
182	0xbe457488	-0.19282734
183	0x3e5128f2	0.20425776
184	0x3e29bf6d	0.1657693
185	0x3e171b1a	0.14756432
186	0x3e187e85	0.14892013
187	0x3d7d0bbf	0.06177878
188	0x3d9b731c	0.07590315
189	0x3dfc9370	0.12332809
190	0xbcee28a5	-0.029072115
191	0xbe1f7238	-0.15570915
192	0xbe5a4efa	-0.2131919
193	0x3d7ed79e	0.062217347
194	0xbd95a85b	-0.07307502
195	0xbeaa8f3b	-0.333124
196	0xbe8d80cb	-0.27637324
197	0xbdc1e314	-0.0946714
198	0xbeb1438e	-0.34621853
199	0x3f86094d	1.0471588
200	0x3da93334	0.08261719
201	0xbfa13ddb	-1.2597002
202	0x3e4391d8	0.19098604
203	0xbe34afc1	-0.1764517
204	0xbd962d0c	-0.07332811
205	0xbe43d6be	-0.19124886
206	0xbe11dd7d	-0.14244647
207	0x3e8f653e	0.2800693
208	0x3e2c02b8	0.16797912
209	0x3e6266d4	0.22109538
210	0x3dd202ac	0.10254416
211	0xbc26a820	-0.01017192
212	0x3e922ba8	0.28548932
213	0xbe1ec52e	-0.15504906
214	0xbe2965a5	-0.1654268
215	0xbe53ecf2	-0.20695856
216	0xbd0a1b7b	-0.033717614
217	0x3cb36cde	0.021902498
218	0xbebf34dd	-0.3734502
219	0x3e1190ac	0.14215344
220	0xbe9e7564	-0.30948937
221	0xbec63d0c	-0.3871845
222	0xbed787ab	-0.42095694
223	0xbd6b3388	-0.05742219
224	0xbe70b7da	-0.23507634
225	0xbe9dfb6f	-0.3085589
226	0xba84c83b	-0.0010130474
227	0xbb8644c8	-0.004097555
228	0xbee300d2	-0.44336563
229	0xbea0aee0	-0.3138342
230	0xbd974299	-0.07385749
231	0x3e1d8b71	0.15385224
232	0xbeb426e7	-0.3518593
233	0xbd9c4613	-0.07630553
234	0xbdf338af	-0.11876046
235	0x3fb5e085	1.4209143
236	0x3f006f9c	0.501703
237	0xbfac44e9	-1.345853
238	0x3e30d038	0.17266929
239	0x3d951e8c	0.07281217
240	0x3e8f6cea	0.28012782
241	0xbe4a7769	-0.19772114
242	0x3e3d3353	0.1847661
243	0xbe6ff184	-0.23431975
244	0x3e298a13	0.16556577
245	0xbe577331	-0.21040036
246	0xbe8d8439	-0.2763994
247	0xbc57284e	-0.013132168
248	0xbdefb145	-0.11703733
249	0xbcbf0859	-0.02331941
250	0xbe3da881	-0.1852131
251	0x3e7e4a17	0.2483295
252	0xbe050da7	-0.12993489
253	0xbe6920cf	-0.22766422
254	0x3e0d66f7	0.13808809
255	0xbe60b94b	-0.21945684

fc1.bias f4 [128]
0	0x3ef88024	0.48535264
1	0x3f521836	0.8206819
2	0x3ebe68a0	0.37189198
3	0x3f2188fa	0.63099635
4	0xbd614c7b	-0.055004578
5	0x3f2cc2f9	0.67485005
6	0x3e063ede	0.1310992
7	0xbe9a831a	-0.30178148
8	0x3e993e19	0.2993019
9	0xbea6947e	-0.32535166
10	0x3f43b898	0.7645354
11	0x3f01ff92	0.50780594
12	0x3f175e41	0.59128195
13	0xbce4bdc1	-0.027922513
14	0x3e3c1b9c	0.18369907
15	0xbe93be74	-0.28856242
16	0x3e05b301	0.13056566
17	0xbe3cdacc	-0.1844284
18	0xbe81ee84	-0.25377285
19	0x3f6d4fae	0.92699707
20	0x3cbd2a8d	0.023091579
21	0x3f3aa87e	0.7291335
22	0xbe07175a	-0.13192502
23	0x3e0705ee	0.13185856
24	0x3e310de0	0.17290449
25	0xbe0e35bb	-0.13887684
26	0x3dbcf198	0.09225768
27	0x3f2764fc	0.65388465
28	0xbe14e8fc	-0.14542001
29	0x3dc8c804	0.09803775
30	0x3ed99380	0.42495346
31	0x3e0b7a10	0.13620782
32	0x3f02368c	0.5086448
33	0xbc010060	-0.007873625
34	0x3c70fa00	0.014708042
35	0x3f0b67e4	0.544554
36	0xbdb7612a	-0.089540794
37	0x3f235f25	0.63817054
38	0x3f25d7b2	0.6478225
39	0xbcd45a60	-0.025922
40	0x3f472d03	0.7780306
41	0x3f49e5eb	0.7886645
42	0x3f2cab4c	0.6744888
43	0x3f267a90	0.65030766
44	0x3f412ada	0.7545601
45	0xbd9da35e	-0.076971754
46	0x3f2c020a	0.6719061
47	0xbd29bfa6	-0.041442536
48	0x3f443723	0.7664663
49	0x3eca78d6	0.39545316
50	0x3ea230c4	0.3167783
51	0xbcc5c6e0	-0.024142683
52	0x3ecdf8b3	0.40228805
53	0xbe0704ff	-0.131855
54	0xbeda77c9	-0.42669514
55	0x3f465cfb	0.77485627
56	0x3d3c872e	0.046027355
57	0xbe90545f	-0.2818937
58	0xbc1733d1	-0.009228663
59	0xbe86da76	-0.26338547
60	0xbe77c942	-0.24197868
61	0x3e4efa93	0.20212774
62	0x3ef5929a	0.4796341
63	0xbe2bdca4	-0.16783386
64	0x3f3f7853	0.74792975
65	0xbe397a65	-0.18113096
66	0xbe099e3b	-0.13439266
67	0x3f1839ed	0.5946339
68	0xbe667a66	-0.22507629
69	0x3d5800c8	0.05273512
70	0x3ea1aa73	0.31575355
71	0xbb72d800	-0.0037055016
72	0x3f49e44c	0.7886398
73	0x3f14252f	0.5786924
74	0x3ee6cd4e	0.4507851
75	0xbc93a1b5	-0.018021444
76	0x3eb21d8f	0.34788176
77	0xbd459d13	-0.0482455
78	0xbd989e8a	-0.07452114
79	0x3b2f0380	0.0026704967
80	0x3ebacbe4	0.3648368
81	0x3f2855fb	0.65756196
82	0x3ef1478c	0.47124898
83	0x3ebcab6f	0.36849543
84	0x3e908c88	0.28232217
85	0xbea967fd	-0.3308715
86	0x3ededadd	0.43526354
87	0x3f3fbc1f	0.74896425
88	0xbe7915a6	-0.24324664
89	0xbe9e94c4	-0.30972874
90	0x3f560242	0.83597195
91	0x3ecf154f	0.40445945
92	0x3f3f18e5	0.7464736
93	0xbde859ac	-0.113452286
94	0xbe05fc48	-0.13084519
95	0xbb878282	-0.004135431
96	0xbe2f5794	-0.17123252
97	0x3eff2ffa	0.4984129
98	0xbd601857	-0.054710712
99	0x3d16ac58	0.036785454
100	0x3db39c04	0.08769992
101	0x3e472490	0.19447541
102	0xbe874a83	-0.26424035
103	0x3e8eb4e2	0.27872378
104	0xbd9d0e72	-0.07668771
105	0x3f5d9e95	0.865701
106	0xbc825ecc	-0.015914343
107	0xbe892b8f	-0.26791045
108	0xbe02f2b8	-0.12787902
109	0x3e39c3a6	0.1814104
110	0xbe8bcae7	-0.2730324
111	0x3e873f1f	0.26415345
112	0x3e7f0e64	0.24907833
113	0x3dc4fb93	0.096182965
114	0xbcfa40dd	-0.030548507
115	0x3ebda9ec	0.37043703
116	0xbd293930	-0.041314304
117	0x3ccb9fb2	0.024856422
118	0x3f1701e1	0.5898724
119	0x3f2fcd96	0.68673074
120	0x3f3a077e	0.7266768
121	0x3eb7ebdf	0.35922143
122	0x3f0fdee2	0.5619947
123	0x3e7d26cf	0.24721836
124	0x3f302d29	0.6881891
125	0xbe8e88f0	-0.2783885
126	0x3f57d374	0.84307027
127	0x3f105119	0.56373745

fc2.weight f4 [64, 128]
0	0x3cd42478	0.025896296
1	0x3d744b12	0.059641905
2	0xbb114678	-0.0022167247
3	0xbdbf9696	-0.09354894
4	0xbd47affc	-0.048751816
5	0xbdb9800e	-0.090576276
6	0x3d9cc569	0.076548405
7	0x3b1ee7ed	0.0024247125
8	0xbcc8ab77	-0.024495823
9	0xbd4614fb	-0.048359852
10	0xbd0815d7	-0.033223953
11	0x3da12814	0.078689724
12	0x3d5431a7	0.051805165
13	0xbdb0021b	-0.085941516
14	0x3d9aa14d	0.07550297
15	0xbce3fa2a	-0.027829248
16	0xbda98fab	-0.082793556
17	0xbd1a3a7a	-0.037653424
18	0xbd7b0187	-0.061280753
19	0x3d412bc3	0.047160875
20	0xbb966547	-0.00458971
21	0x3c6bc6bc	0.014390644
22	0xbbcfc2b0	-0.006340347
23	0xbca159f4	-0.019696213
24	0x3cd72754	0.02626387
25	0x3d8b11c3	0.06790497
26	0x3c96ed7c	0.018423788
27	0xbd37ca35	-0.044870574
28	0xbd4b60ab	-0.049652737
29	0xbd54d5f5	-0.051961858
30	0x3d083fd2	0.03326399
31	0xbda83036	-0.082123205
32	0xbd60516b	-0.054765146
33	0x3c0be028	0.00853733
34	0x3d0c6dee	0.034284525
35	0x3d65d8a2	0.0561148
36	0x3d9f5ed5	0.0778176
37	0xbd24a41a	-0.040195562
38	0xbd4d4bdb	-0.05012117
39	0x3b6bd3c0	0.0035984367
40	0x39e7ecc2	0.00044236152
41	0x3d29f8bc	0.041496977
42	0xbbd05216	-0.0063574417
43	0x3d6afa5c	0.057367668
44	0xbd44e388	-0.048068553
45	0x3d1d2bea	0.038371958
46	0xbc54a2b0	-0.012978241
47	0xbd755db8	-0.05990383
48	0xbdbdbe43	-0.09264805
49	0xbbb254dc	-0.005442245
50	0x3da6035a	0.08106108
51	0xbd95bc05	-0.073112525
52	0x3cfd65f6	0.030932408
53	0xbdaf6757	-0.085646324
54	0x3d1ef849	0.038811002
55	0xbd200bb9	-0.03907368
56	0x3d17b70c	0.0370398
57	0xbdb4531b	-0.088049136
58	0x3d0addb3	0.033902835
59	0xbd8dead5	-0.06929556
60	0xbd03cb1a	-0.032176115
61	0x3d1f09b4	0.038827613
62	0x3d022260	0.031771064
63	0xbc1de258	-0.009636484
64	0x3d3da08c	0.046295688
65	0xb9509e00	-0.00019895285
66	0xbd9ed684	-0.07755759
67	0xbd553bb4	-0.05205889
68	0xbc96bf98	-0.018401906
69	0xbd48d0da	-0.0490273
70	0xbc90fcfd	-0.01769876
71	0x3da5197d	0.08061502
72	0xbd995f73	-0.074889086
73	0x3d31e3f2	0.043430276
74	0x3d081e8e	0.033232264
75	0xbd816d61	-0.063196905
76	0xbc469ce7	-0.012122369
77	0x3d8a3552	0.06748451
78	0x3cf6ed1c	0.03014236
79	0x3da39e49	0.07989175
80	0xbd13d89c	-0.036095247
81	0xbaff224a	-0.0019465175
82	0x3d97e408	0.074165404
83	0x3d0f8e32	0.035047717
84	0xbca9f428	-0.020746306
85	0x3d274b12	0.040843077
86	0x3c968187	0.01837231
87	0x3cee45c7	0.029086007
88	0xbd9e4cdc	-0.077295035
89	0xbd34e55d	-0.04416405
90	0x3d998526	0.07496099
91	0xbd05514b	-0.03254823
92	0x3cc66634	0.024218656
93	0xbd86f64c	-0.06589946
94	0xbd26c03b	-0.04071067
95	0x3c1f55e3	0.009725067
96	0xbd267918	-0.040642828
97	0xbd85f3a0	-0.065406084
98	0xbd245b68	-0.040126234
99	0x3d964d33	0.07338943
100	0x3c140fa0	0.009036928
101	0xbbde01d0	-0.0067751184
102	0x3cce6b0f	0.025197534
103	0xbc2ba6ff	-0.010476827
104	0xbc2a4350	-0.010392025
105	0x3d6ddbae	0.05807083
106	0x3cc0154d	0.023447657
107	0xbd8d247c	-0.068917245
108	0xbdb880df	-0.09008955
109	0x3d8dbc03	0.06920626
110	0x3d14129c	0.03615056
111	0xbdb10ab2	-0.08644618
112	0xbd1cd7a5	-0.038291592
113	0xbd6665df	-0.056249496
114	0x3b9f53c4	0.0048622806
115	0xbc698b0a	-0.014254341
116	0x3d82737f	0.063696854
117	0x3ca8e2a8	0.02061589
118	0x3b018dd5	0.0019768376
119	0xbda933c0	-0.08261824
120	0xbd67b452	-0.05656845
121	0xbda067e4	-0.078323156
122	0xbcc5c0af	-0.02413973
123	0xbc55d120	-0.013050348
124	0x3d4460eb	0.04794399
125	0xbd926e64	-0.071499616
126	0xbc32ce5b	-0.010913457
127	0x3d84fd5c	0.06493637
128	0x3d229d12	0.039700575
129	0xbdab63b3	-0.083686255
130	0x3d1391c4	0.036027685
131	0x3cd59158	0.026070282
132	0x3d58ab16	0.052897535
133	0x3d45a1a6	0.048249863
134	0xbda30831	-0.07960547
135	0x3d331dde	0.043729655
136	0xbd4dea4a	-0.050272264
137	0xbd2186f4	-0.039435342
138	0xbd193602	-0.03740502
139	0x3cb9f6fc	0.02270078
140	0x3d624716	0.055243574
141	0x3d8b7ccb	0.06810912
142	0xbc44dca8	-0.012015499
143	0x3d25f1b6	0.040513717
144	0x3d8033cd	0.0625988
145	0xbb8f6e00	-0.0043771267
146	0xbd252242	-0.040315874
147	0x396b3600	0.00022431463
148	0xbd16303f	-0.036667105
149	0x3d5009ba	0.050790526
150	0xbd09a2ab	-0.033602398
151	0x3cf89ae8	0.030347303
152	0x3dad9121	0.08474947
153	0xbdaf6ece	-0.08566056
154	0x3d44ea06	0.048074745
155	0xbd8955ee	-0.06705843
156	0xbd5d44ee	-0.054020815
157	0x3d911faf	0.07086121
158	0xbc930f24	-0.017951556
159	0xbd0d2ad0	-0.034464657
160	0x3c3881b8	0.011261396
161	0x3da73197	0.081637554
162	0x3c0fe4e0	0.008782595
163	0xbd6829bd	-0.05668043
164	0xbcbdbb94	-0.023160733
165	0x3d68636e	0.05673545
166	0xbcd2e104	-0.025742061
167	0xbceb9a92	-0.028760228
168	0x3b623e60	0.0034522042
169	0xbca16d44	-0.019705422
170	0xbd8c705e	-0.0685737
171	0xbd91fdc9	-0.07128484
172	0xbd273fe4	-0.040832415
173	0xbcc329d4	-0.023823656
174	0xbd8de0f4	-0.06927672
175	0x3d347e26	0.044065617
176	0x3d7be45e	0.061497085
177	0xbd027c06	-0.03185656
178	0xb9e45900	-0.0004355386
179	0x3cbebcdc	0.023283415
180	0xbb0b8320	-0.0021287873
181	0xbdaab5da	-0.08335467
182	0x3beb9aa0	0.0071900636
183	0xbd5ec0ef	-0.054383215
184	0xbc09b220	-0.008404285
185	0x3b3218a0	0.0027175322
186	0x3c7a2368	0.015267231
187	0x3c95083c	0.018192403
188	0xbd9905be	-0.07471798
189	0x3d433e1e	0.04766666
190	0xbd385da2	-0.04501117
191	0x3ce48dd8	0.027899668
192	0xbd19b719	-0.03752813
193	0xbd86a68b	-0.06574734
194	0xbd3e5775	-0.046470124
195	0x3da9e5ad	0.0829576
196	0x3d2cfafe	0.042231552
197	0x3cde6cdc	0.027151518
198	0xbd96256c	-0.073313564
199	0xbd6143b2	-0.0549962
200	0xbda911f9	-0.08255381
201	0xb8fbcc00	-0.000120066106
202	0x3ca88918	0.020573184
203	0x3d5a7d72	0.05334229
204	0xbb805e80	-0.0039175153
205	0x3d751a02	0.059839256
206	0x3d86fec5	0.06591562
207	0xbd3423ab	-0.043979328
208	0xbdaf66e5	-0.085645474
209	0x3d7a463e	0.061102144
210	0xbd631411	-0.05543906
211	0x3d270266	0.04077377
212	0xbd4c87f7	-0.049934354
213	0xbd2c01d1	-0.04199392
214	0x3c568c88	0.013095029
215	0x3d199ea2	0.0375048
216	0x3cdbabe0	0.026815355
217	0xbcd53094	-0.02602414
218	0x3c9bd4c8	0.01902236
219	0xbd231d32	-0.039822765
220	0xbca68538	-0.020327196
221	0x3da27ef9	0.07934374
222	0x3d0b8a84	0.034067646
223	0xbd00b2e3	-0.0314206
224	0x3d257632	0.040395923
225	0x3d38f83a	0.045158602
226	0xbc29c030	-0.0103607625
227	0x3c86b510	0.01644376
228	0x3d51a716	0.051184736
229	0xbd430845	-0.04761531
230	0xbd0d6a25	-0.034525055
231	0xba7a8d00	-0.0009557754
232	0x3cc9fed4	0.024657644
233	0xbd0d2f4a	-0.034468926
234	0x3bf2e480	0.007412493
235	0x3d8232a9	0.06357319
236	0x3aa3ee80	0.0012506992
237	0x3d44a042	0.048004396
238	0xbd9248f8	-0.07142824
239	0xbd1a9c9a	-0.037747003
240	0x3d8b5613	0.06803527
241	0x3d327812	0.04357154
242	0xbd1c0d58	-0.038098663
243	0xbcc6af6c	-0.02425357
244	0xbd75d924	-0.060021535
245	0xbcd7c54e	-0.0263392
246	0x3d238716	0.03992375
247	0x3cf1b2e4	0.029504247
248	0xbdb4d3a4	-0.0882943
249	0xbda57048	-0.080780566
250	0x3d1e2966	0.0386137
251	0x3d9b6883	0.075882934
252	0xbcd06f78	-0.025443777
253	0x3d135d9e	0.035977952
254	0xbc7c0320	-0.015381604
255	0xbd907db6	-0.070552275

fc2.bias f4 [64]
0	0x3c405d3e	0.011740981
1	0xbd8f7c43	-0.07006123
2	0xbd092765	-0.033484835
3	0x3f4d07e7	0.80090183
4	0x3ec02b5b	0.37533078
5	0x3d939e86	0.0720797
6	0x3c67683c	0.0141239725
7	0x3f417169	0.75563675
8	0x3e983ab8	0.297323
9	0xbdc26ca0	-0.09493375
10	0x3d329030	0.04359454
11	0x3c8ee696	0.017443936
12	0x3f288534	0.6582825
13	0x3cd4acf6	0.02596138
14	0xbd6151d6	-0.055009685
15	0xbda9479f	-0.08265614
16	0xbc115226	-0.008869683
17	0x3f35bb26	0.7098869
18	0xbd2b05af	-0.041753467
19	0x3efc68e5	0.49298778
20	0x3f1644bd	0.58698636
21	0xbd9ac3ec	-0.075569004
22	0xbd75b0f8	-0.059983224
23	0xbbf8cae0	-0.007592544
24	0x3a644a08	0.0008708541
25	0x3d939e22	0.07207896
26	0xbd0ab715	-0.033866007
27	0x3e64c5cd	0.2234108
28	0x3f1afeee	0.6054524
29	0x3f623d9c	0.8837526
30	0x3d9ebb04	0.07750514
31	0x3e8926ba	0.2678736
32	0x3d37fdb5	0.04491969
33	0x3e64a8ae	0.22329971
34	0x3cfec66f	0.03110048
35	0xbdf2d1aa	-0.118563965
36	0x3f6a3943	0.91493624
37	0x3e00adfc	0.1256637
38	0x3d72a668	0.05924073
39	0x3c91de00	0.017806053
40	0x3e5b8c1b	0.21440165
41	0xbd7fb70d	-0.06243043
42	0x3d01c906	0.03168585
43	0x3d02cd05	0.031933803
44	0x3c9b1113	0.01892904
45	0xbd931384	-0.07181457
46	0xbd9682cf	-0.073491685
47	0xbddff45a	-0.10935278
48	0xbc7b2393	-0.015328306
49	0x3ef0ec9c	0.4705552
50	0xbbc442c1	-0.005989403
51	0x3e13cdf2	0.1443403
52	0x3f1c1938	0.6097598
53	0x3f068c66	0.5255798
54	0x3f1316db	0.5745675
55	0x3d61e67c	0.055151448
56	0x3b934e1a	0.0044953944
57	0xbde0c46c	-0.109749645
58	0x3dde9c3f	0.10869645
59	0x3e38fd5f	0.18065403
60	0xbc14f60c	-0.009091865
61	0x3e97c047	0.29638883
62	0x3b1828f5	0.0023217772
63	0x3e12cc69	0.14335789

fc_value.weight f4 [32, 64]
0	0x3db18459	0.086678214
1	0x3d96a4a4	0.073556215
2	0xbd832b42	-0.06404735
3	0x3d816f59	0.06320066
4	0x3baa802a	0.0052032666
5	0xbd8d31ba	-0.0689425
6	0x3de00273	0.10937967
7	0xbc9a165f	-0.018809495
8	0xbdc1fc3e	-0.094719395
9	0xbc7f6c30	-0.015589759
10	0xbda0da12	-0.078540936
11	0x3d828875	0.06373683
12	0xbcc3ec0f	-0.023916272
13	0x3df16002	0.1178589
14	0x3c85ea98	0.016347215
15	0xbc057fe0	-0.008148164
16	0x3d1240eb	0.03570644
17	0x3cf53c08	0.029935852
18	0xbcc89dde	-0.02448934
19	0xbad6ddb9	-0.0016392983
20	0xbe0393e3	-0.12849383
21	0xbd909eb9	-0.07061524
22	0xbdcda7bf	-0.10041761
23	0x3c602fb0	0.013683245
24	0xbd8ac822	-0.067764536
25	0xbdabcc80	-0.08388615
26	0xbdd2cbb7	-0.10292762
27	0xbba33760	-0.0049809664
28	0x3d4be696	0.04978045
29	0xbd304e7f	-0.04304361
30	0xbe1938e0	-0.14963102
31	0xbe2e98ed	-0.17050524
32	0x3cdba44a	0.026811738
33	0x3d97691c	0.07393095
34	0xbbb34b18	-0.0054715984
35	0xbb899a11	-0.0041992743
36	0x3d31ed8a	0.043439426
37	0xbd17de59	-0.03707728
38	0xbcfc74b8	-0.030817375
39	0xbd99b132	-0.075045004
40	0xbdf6b4e7	-0.12046223
41	0xbdb87332	-0.09006347
42	0xbde1d247	-0.11026435
43	0xbd57366a	-0.052542128
44	0xbd431932	-0.04763145
45	0x3be688ab	0.007035335
46	0x3db1c3ea	0.08679946
47	0xbdf150dd	-0.117830016
48	0xbd961fac	-0.0733026
49	0xbd860a09	-0.06544883
50	0x3d5713d4	0.052509144
51	0x3da73271	0.08163918
52	0xbd9ed1d1	-0.07754863
53	0xbd9592b5	-0.07303373
54	0x3d820306	0.06348233
55	0xbd27ccdc	-0.040966853
56	0x3db7a2f2	0.08966626
57	0x3d5c3e08	0.053770095
58	0x3d254e32	0.040357776
59	0xbe34c4bb	-0.17653172
60	0x3dce9586	0.10087113
61	0x3d02ee5a	0.03196559
62	0xbd9a84fd	-0.07544897
63	0xbd9ab413	-0.07553878
64	0xbb8f3e65	-0.0043714517
65	0xbd8ccdb6	-0.06875174
66	0x39eb1aab	0.00044842562
67	0xbdfb3a89	-0.12267024
68	0x3d2ba14a	0.041901864
69	0x3cc35a9d	0.023846919
70	0x3cc92ade	0.024556573
71	0xbe4fc2ee	-0.20289204
72	0x3ca0a391	0.019609245
73	0xbdd6ec40	-0.1049428
74	0xbc40841c	-0.011750247
75	0xbd69d36f	-0.057086404
76	0x3ce8bc7e	0.028410193
77	0x3df183b0	0.117926955
78	0x3def447b	0.116829835
79	0xbddc107f	-0.10745334
80	0x3d97f671	0.07420052
81	0xbe2269a0	-0.15860605
82	0x3d4dc5ef	0.050237592
83	0xbd91fd34	-0.07128373
84	0x3da9c709	0.08289916
85	0x3ddc085c	0.10743782
86	0x3ddf48d0	0.1090256
87	0x3de678ce	0.112535104
88	0x3ba3d669	0.004999925
89	0xbddb5f00	-0.10711479
90	0x3dec3ed7	0.11535423
91	0x3ca2b560	0.019861877
92	0x3c9738c5	0.018459687
93	0xbe212c15	-0.15739472
94	0xbd05a209	-0.032625232
95	0x3cfe883f	0.031070827
96	0x3cde95e4	0.027171083
97	0xbd5c673f	-0.0538094
98	0xbda51375	-0.08060352
99	0xbc642c3c	-0.013926562
100	0xbe295789	-0.16537298
101	0x3cf040c5	0.02932776
102	0x3d63470d	0.05548768
103	0xbc0ab740	-0.008466542
104	0xbdd7449a	-0.105111316
105	0x3d06b8f9	0.032891247
106	0x3c497fac	0.012298506
107	0x3d4c512e	0.049882106
108	0xbc53f213	-0.012936133
109	0xbd4fb8ec	-0.050713465
110	0xbcadad11	-0.021200689
111	0x3d8a1e89	0.06744105
112	0xbcc663e0	-0.024217546
113	0xbd643c24	-0.055721417
114	0x3d9a4719	0.07533092
115	0x3c6ddf05	0.014518504
116	0x3db34cd1	0.08754886
117	0xbc482d88	-0.012217887
118	0x3dcbcd0a	0.099512175
119	0xbd90fbb7	-0.07079261
120	0x3e132e5f	0.14373158
121	0xbd9cc2d4	-0.07654348
122	0x3ce14bc3	0.027501946
123	0xbe5cb171	-0.21552064
124	0xbd97eda8	-0.07418376
125	0x3d423292	0.04741151
126	0xbd1c9c97	-0.038235273
127	0xbbe87d0d	-0.0070949853
128	0xbdaf21eb	-0.08551391
129	0x3a421b00	0.0007404536
130	0x3e05a998	0.13052976
131	0x3e25da7b	0.16196625
132	0x3ce911e5	0.028450916
133	0xbe1524e2	-0.14564851
134	0xbda87702	-0.08225824
135	0x3e248c70	0.16069198
136	0x3d915e97	0.0709812
137	0x3d3c0ee1	0.045912627
138	0x3d6eff50	0.058348954
139	0xbdbc4b78	-0.09194082
140	0x3e14070c	0.14455813
141	0xbdd4483c	-0.1036534
142	0x3d41146f	0.047138628
143	0x3c82357a	0.01589464
144	0x3cefaae3	0.02925629
145	0x3dd6f682	0.104962364
146	0xbe07bc5a	-0.13255444
147	0x3e20dfac	0.15710324
148	0x3e4e30b4	0.20135766
149	0xbd8f39d7	-0.06993454
150	0xbbce1f08	-0.0062903203
151	0x3dee3fa8	0.11633235
152	0xbc0096d7	-0.007848463
153	0x3cbaedb3	0.022818422
154	0x3de24b64	0.11049536
155	0xbd7d19b1	-0.06179208
156	0x3dc6c087	0.097046904
157	0x3e1ac71c	0.15115017
158	0x3cadcba6	0.021215271
159	0x3df699d0	0.12041056
160	0x3daabeb4	0.08337155
161	0x3e784cdc	0.2424807
162	0xbdf0bd5e	-0.11754869
163	0xbcce16bc	-0.025157325
164	0x3e2d102b	0.16900699
165	0xbdd2899f	-0.102801554
166	0xbdb24580	-0.08704662
167	0x3da90db2	0.08254565
168	0x3daeb0dd	0.08529828
169	0xbd42e92a	-0.047585644
170	0x3cff4472	0.031160567
171	0x3dec44b5	0.11536542
172	0xbd41d7c3	-0.047324907
173	0xbdd9d437	-0.1063618
174	0xbda8c56e	-0.08240782
175	0xbc9a6944	-0.018849023
176	0x3d5e1e7c	0.05422829
177	0x3e12e728	0.14345992
178	0xbd8c3693	-0.06846347
179	0xbc9dbacc	-0.01925411
180	0x3db328c1	0.087480076
181	0x3dc0061e	0.09376167
182	0xbd86f3e3	-0.065894864
183	0xbdc99bb6	-0.09844153
184	0xbd82e704	-0.06391719
185	0x3d899922	0.06718661
186	0x3d9b8e72	0.07595529
187	0x3e3486e5	0.17629583
188	0xbdfebd33	-0.12438431
189	0xbda7776a	-0.08177073
190	0x3d2001d9	0.039064262
191	0x3d4db535	0.05022164
192	0x3d01b676	0.03166815
193	0x3d23d54c	0.039998338
194	0xbc9f00a4	-0.019409485
195	0xbd0724b5	-0.03299399
196	0x3d2d5d79	0.04232547
197	0x3d9b943e	0.07596634
198	0x3c06d29a	0.008228922
199	0xbd02ecf1	-0.031964246
200	0xbd6d69a8	-0.05796209
201	0x3d0b33dd	0.033985008
202	0xbe197aaa	-0.14988199
203	0xbda2989a	-0.07939263
204	0x3c7723bc	0.015084203
205	0x3df58d7a	0.11989875
206	0xbd838669	-0.06422121
207	0x3df3cd39	0.119043775
208	0x3d85a62c	0.065258354
209	0xbd9a917b	-0.075472794
210	0xbd457efd	-0.04821681
211	0x3d7b866a	0.061407484
212	0xbdd0cee4	-0.10195711
213	0x3dfe1db4	0.12408009
214	0x3cd201b2	0.025635574
215	0xbd4ebd84	-0.050473705
216	0xbd9a7c44	-0.07543233
217	0xbdfbcbbc	-0.122947186
218	0xbe227132	-0.15863493
219	0xbba00462	-0.004883335
220	0x3ddacb7f	0.10683345
221	0x3d3bf05c	0.04588352
222	0xbdb22769	-0.08698923
223	0xbd714c74	-0.058910802
224	0xbd2d1ac4	-0.042261854
225	0x3cc275cb	0.023737809
226	0x3db86cb7	0.09005111
227	0xbbf737d0	-0.007544495
228	0xbdbe9caf	-0.09307229
229	0x3c1a497a	0.009416932
230	0xbd318159	-0.043336246
231	0x3dbbc2bc	0.09168002
232	0x3d2b8ceb	0.041882437
233	0x3dbf23da	0.0933301
234	0x3b34bf14	0.0027579712
235	0x3dbe39f1	0.09288395
236	0xbdb96ace	-0.090535745
237	0xbd2fd118	-0.042924017
238	0x3d886d8c	0.066615194
239	0x3ddd44d0	0.108041406
240	0xbc184e07	-0.009295947
241	0xbe0cf9bd	-0.13767143
242	0xbd06a3af	-0.032870945
243	0x3d492337	0.04910585
244	0x3d93388c	0.0718852
245	0xbdbe3bdb	-0.0928876
246	0xbda69962	-0.08134724
247	0xbd1457ac	-0.036216423
248	0x3d6f62bc	0.05844377
249	0x3db67e78	0.08910841
250	0x3dab30be	0.08358906
251	0xbe449aaf	-0.19199632
252	0xbd376499	-0.04477367
253	0xbd496871	-0.04917187
254	0xbc433742	-0.01191503
255	0x3ce7b1bd	0.028282994

fc_value.bias f4 [32]
0	0xbe3dba6a	-0.18528143
1	0x3ed01ee0	0.40648556
2	0x3f1893b7	0.59600395
3	0x3e0daa75	0.13834555
4	0x3d5a8fe8	0.053359896
5	0x3f036da1	0.51339155
6	0xbca08487	-0.019594444
7	0x3da0ae05	0.078456916
8	0x3df17874	0.11790553
9	0x3f42987a	0.7601391
10	0x3f0fb699	0.56137997
11	0xbc08db07	-0.008353001
12	0xbcd8b628	-0.026454046
13	0x3f423319	0.7585922
14	0x3f424fb5	0.75902873
15	0xbd0759b4	-0.033044532
16	0x3c800bf5	0.015630702
17	0x3effbbd9	0.49948004
18	0xbd3fa36e	-0.046786718
19	0x3f265f5c	0.64989257
20	0x3f22e3d5	0.63628894
21	0x3f445d5b	0.7670495
22	0x3f4ff0f2	0.8122703
23	0xbddead54	-0.108729035
24	0xbdeb7a39	-0.114979215
25	0xbca6bbcf	-0.020353226
26	0xbb1c81d2	-0.002388109
27	0xbd5fb2fe	-0.05461406
28	0xbea2630a	-0.31716186
29	0xbec94b43	-0.39315233
30	0x3c6e6140	0.014549553
31	0x3f4f2a1b	0.8092362

value.weight f4 [1, 32]
0	0xbe222f8e	-0.15838453
1	0x3cb23198	0.021752164
2	0x3e3a3772	0.18185213
3	0x3de2df65	0.110777654
4	0xbe0badb9	-0.13640489
5	0xbeb33c8f	-0.3500714
6	0xbd14be17	-0.036314096
7	0xbc981a31	-0.018567177
8	0x3b034869	0.0020032173
9	0x3d84bda1	0.06481481
10	0x3cc36e47	0.023856295
11	0xbd907122	-0.07052828
12	0xbd93bc75	-0.0721368
13	0x3e60e237	0.21961294
14	0x3de6eb43	0.11275341
15	0xbe04ebc5	-0.12980564
16	0x3ca8e0a4	0.02061493
17	0xbdac0d88	-0.084010184
18	0xbdd75ed3	-0.10516133
19	0x3d2a5c26	0.041591786
20	0x3e1fd822	0.15609792
21	0x3e02e645	0.12783153
22	0x3dc448e7	0.095842175
23	0x3d4f96a8	0.050680786
24	0xbe119b23	-0.14219336
25	0xbd8a4fec	-0.06753525
26	0xbd5e8a0c	-0.05433087
27	0xbe143810	-0.14474511
28	0x3e2d4cdd	0.16923852
29	0x3e93f4a6	0.2889759
30	0x3d8c2208	0.068424284
31	0x3e458aeb	0.19291274

fc_advantage.weight f4 [32, 64]
0	0xbdbf0062	-0.09326245
1	0xbdd8cd46	-0.10586028
2	0x3d96cdf4	0.07363501
3	0xbe0afa97	-0.13572155
4	0x3d89edee	0.067348346
5	0xbdb549fe	-0.088520035
6	0x3de233f8	0.110450685
7	0xbd20870a	-0.039191283
8	0x3d3e15a4	0.046407357
9	0xbe05cfd3	-0.1306756
10	0xbc8f77f0	-0.017513245
11	0xbcc672a9	-0.024224596
12	0x3cc80596	0.024416726
13	0xbd9bf2e8	-0.0761469
14	0x3dee69f4	0.11641303
15	0xbd402884	-0.04691364
16	0x3def9ef6	0.11700241
17	0xbde8e9a6	-0.1137269
18	0xbcc1cb7b	-0.023656597
19	0xbc8ca7e4	-0.0171699
20	0xbc9ab8b4	-0.018886901
21	0xbd568349	-0.052371297
22	0xbdfd2936	-0.12361376
23	0xbb963680	-0.0045841336
24	0xbbec2c20	-0.0072074085
25	0x3de8ae0e	0.11361323
26	0xbc0baa50	-0.008524492
27	0x3da37ab2	0.07982387
28	0x3b872428	0.004124183
29	0xbd922703	-0.07136347
30	0xbe2881b6	-0.16455731
31	0xbe191fcb	-0.14953534
32	0x3b2713da	0.002549401
33	0xbe10319d	-0.14081426
34	0x3ddad131	0.10684431
35	0x3cbaf120	0.022820055
36	0x3bf0e5e7	0.0073516252
37	0x3d882190	0.066470265
38	0xbdd01944	-0.10161069
39	0x3dc35822	0.095382944
40	0xbdef8cde	-0.1169679
41	0x3dcc05ce	0.09962045
42	0x3d51c244	0.051210657
43	0xbdc80184	-0.09765914
44	0xbcb5ad9a	-0.022177506
45	0xbdecf442	-0.11570026
46	0x3d33cc80	0.0438962
47	0xbd6c0db8	-0.05763027
48	0xbcb36370	-0.021898001
49	0xbe23d651	-0.15999724
50	0x3b068340	0.0020525008
51	0x3cf188e7	0.029484225
52	0xbd9acae2	-0.07558228
53	0xbe02fcf9	-0.12791814
54	0xbd163e06	-0.036680244
55	0x3c060690	0.008180276
56	0x3da9386c	0.08262715
57	0xbc431330	-0.01190643
58	0x3ca4b8d0	0.020107657
59	0x3cbcbd3e	0.023039456
60	0x3ccc3060	0.02492541
61	0xbdd5bd55	-0.10436503
62	0xbb34ce48	-0.0027588774
63	0x3d44e33f	0.04806828
64	0xbd83570e	-0.06413089
65	0xbc03f010	-0.008052841
66	0xbb8b3880	-0.0042486787
67	0xbd75cc5c	-0.060009345
68	0xbdefd8c2	-0.11711265
69	0x3d120c42	0.03565622
70	0xbd5ef96c	-0.054437086
71	0xbcc594da	-0.02411883
72	0x3cbeef24	0.02330739
73	0x3dbf1afc	0.09331319
74	0x3d182112	0.037140913
75	0x3d00f688	0.03148511
76	0xbe12017c	-0.14258379
77	0xbdddaf48	-0.10824448
78	0x3def9dc8	0.11700016
79	0xbda301c7	-0.079593234
80	0xbceffb50	-0.02929464
81	0x3c3c3140	0.0114863515
82	0x3d2d5400	0.042316437
83	0xbe13884d	-0.14407463
84	0xbdb7f7ee	-0.08982836
85	0x3bfab7a0	0.0076512843
86	0xbd57f18d	-0.052720595
87	0x3c61ee10	0.013789669
88	0x3df8300e	0.12118541
89	0x3c1cc910	0.009569421
90	0xbe3c5a37	-0.18393789
91	0x3d3b40c3	0.04571606
92	0x3db4c1fd	0.08826063
93	0xbcef688b	-0.029224655
94	0x3c7684ed	0.01504634
95	0xbe3bb707	-0.18331538
96	0x3e131168	0.14362109
97	0xbe0c6957	-0.13712059
98	0x3c72642a	0.014794389
99	0x3d95b534	0.073099524
100	0x3ba9b0d7	0.0051785517
101	0xbdeffa4a	-0.11717661
102	0xbe03587c	-0.12826723
103	0x3d5cc31c	0.05389701
104	0xbe175723	-0.14779334
105	0xbdafd836	-0.08586161
106	0xbdacaa8b	-0.08430966
107	0xbd8d63de	-0.06903814
108	0xbcdb25c0	-0.026751399
109	0xbdbee4b4	-0.093209654
110	0x3cb6db55	0.022321383
111	0xbcbddcd0	-0.02317658
112	0x3dc37c04	0.095451385
113	0x3cfb659c	0.0306881
114	0x3d6efb91	0.05834538
115	0xbd0cc451	-0.03436691
116	0xbd8e14bc	-0.069375485
117	0x3cb8d4fa	0.022562493
118	0xbdc21f72	-0.09478654
119	0xbda06118	-0.07831019
120	0x3ac63000	0.0015120506
121	0x3d623b6c	0.05523245
122	0x3bd87a23	0.0066063567
123	0x3d823e2e	0.06359516
124	0xbe003302	-0.12519458
125	0xbe19af71	-0.15008332
126	0xbde499b9	-0.11162133
127	0x3d69247a	0.056919552
128	0xbd8eb13c	-0.069673985
129	0x3dfba156	0.12286632
130	0x3dd419ec	0.10356507
131	0x3d2b8d91	0.041883055
132	0x3cd559e4	0.02604384
133	0xbda1c602	-0.07899095
134	0xbdb5a5e2	-0.0886953
135	0xbc063880	-0.008192182
136	0xbe1d40bf	-0.1535673
137	0x3c9c11c0	0.019051433
138	0xbc9dd422	-0.019266192
139	0xbddc3ebe	-0.107541546
140	0xbe0dee1c	-0.13860363
141	0x3d947bc4	0.07250169
142	0x3dffa782	0.124831215
143	0xbcbd67c8	-0.023120776
144	0x3bdfe040	0.0068321526
145	0xbdc84a30	-0.09779775
146	0x3d6bed6c	0.05759947
147	0xbdd4a19d	-0.10382388
148	0x3d20b561	0.039235476
149	0xbbcf59e0	-0.0063278526
150	0xbd8675ec	-0.065654606
151	0xbddd6e6c	-0.10812077
152	0x3d246cf0	0.040142953
153	0x3df16564	0.11786917
154	0x3e162550	0.14662671
155	0xbddf18b5	-0.10893384
156	0xbdbd216c	-0.0923489
157	0xbe092856	-0.13394293
158	0x3c9dfb91	0.019284995
159	0xbc81ef55	-0.015861193
160	0x3df22103	0.11822703
161	0x3cd660e1	0.026169242
162	0xbd2a70e4	-0.041611567
163	0x3dcde284	0.1005297
164	0xbdfa7799	-0.12229843
165	0xbd138efc	-0.036025032
166	0x3a9e5100	0.0012078583
167	0xbdd4e86e	-0.10395895
168	0x3cdf01b6	0.027222496
169	0xbd5a3cf8	-0.0532808
170	0xbd3452ac	-0.044024155
171	0x3d108d44	0.03529097
172	0xbd532cf4	-0.051556543
173	0x3db93ebc	0.09045169
174	0xbd869e5c	-0.065731734
175	0xbdbef932	-0.09324874
176	0x3d1e7c98	0.03869304
177	0xbdda4a05	-0.10658649
178	0xbd715e48	-0.058927804
179	0xbda94f84	-0.082671195
180	0xbd00012f	-0.03125113
181	0xbe1fe121	-0.15613224
182	0xbe054f6f	-0.13018583
183	0x3da1ede0	0.07906699
184	0x3d7a0130	0.06103629
185	0x3ddfd4c6	0.10929255
186	0xbd8d49ac	-0.068988174
187	0xbce4eeb7	-0.02794586
188	0xbdd5eafe	-0.10445212
189	0x3de8ef14	0.113737255
190	0x3c802b40	0.015645623
191	0x3d3ba0f2	0.045807786
192	0x3d727c30	0.059200466
193	0x3d0cc640	0.034368753
194	0xbd5e8cfc	-0.054333672
195	0xbd9b5470	-0.075844646
196	0xbc4075d4	-0.011746842
197	0xbda43cc0	-0.080194
198	0x3d1e94c5	0.038716096
199	0x3d43595e	0.04769265
200	0xbd3ed868	-0.0465931
201	0xbdb5d46a	-0.088784054
202	0x3cd227f0	0.02565381
203	0xbd769d26	-0.060208462
204	0xbcc705a3	-0.02429468
205	0xbc9f7490	-0.019464761
206	0xbdaaa224	-0.08331707
207	0x3ccb4968	0.024815276
208	0xbcc6f08f	-0.02428463
209	0xbc2acd37	-0.010424904
210	0x3d6668d7	0.056252327
211	0x3db150bd	0.08657978
212	0xbdefea8d	-0.11714659
213	0x3d0817e8	0.033225924
214	0x3d80585c	0.06266853
215	0x3b5042c0	0.0031778067
216	0x3ce18968	0.02753134
217	0xbd42103c	-0.047378764
218	0xbd86d821	-0.06584192
219	0x3cc98968	0.024601653
220	0xbddc67cb	-0.107619844
221	0xbdd7686c	-0.10517964
222	0xbe10b13e	-0.14130113
223	0xbcefba2e	-0.029263582
224	0xbe001e4c	-0.12511557
225	0xbe1191ab	-0.14215724
226	0xbc8634e8	-0.01638265
227	0x3c81c7c8	0.015842333
228	0x3d9f7581	0.07786084
229	0xbe0ec089	-0.13940634
230	0xbdf3e504	-0.11908916
231	0x3dec4e2c	0.115383476
232	0x3c6c9e5a	0.014442051
233	0x3d9a3442	0.07529499
234	0xbd916cbc	-0.071008176
235	0x3bf27ce0	0.00740014
236	0xbd76a061	-0.060211543
237	0x3c6e3bd0	0.014540628
238	0xbdf92bf8	-0.121665895
239	0x3d0d367e	0.034475796
240	0x3ca5bcc8	0.02023162
241	0xbda80b5b	-0.08205291
242	0xbd594a2c	-0.05304925
243	0xbd11c3ae	-0.035587005
244	0x3dc1bdf8	0.09460062
245	0x3db487d3	0.08814969
246	0x3cd1b03a	0.025596727
247	0xbdf82670	-0.12116706
248	0xbdca8f82	-0.09890653
249	0x3d820292	0.063481465
250	0xbdc37084	-0.09542945
251	0x3ced3320	0.028955042
252	0xbdd81367	-0.10550576
253	0x3ddfebba	0.10933633
254	0xbdd96c8e	-0.10616408
255	0x3d2a0c22	0.041515477

fc_advantage.bias f4 [32]
0	0x3c569b03	0.013098481
1	0xbc2f721e	-0.01070836
2	0xbe283ad3	-0.1642869
3	0xbdc8d381	-0.09805966
4	0x3e5779ed	0.21042605
5	0xbe54a928	-0.20767653
6	0xbcaada27	-0.020855976
7	0xbbca480d	-0.00617314
8	0xbd052f99	-0.032516096
9	0x3daa6c47	0.083214335
10	0x3db9d572	0.090739146
11	0x3db75b18	0.08952922
12	0xbd3286c6	-0.04358556
13	0xbcecd663	-0.028910821
14	0xbdbaad3e	-0.091150746
15	0x3d098166	0.03357067
16	0x3e91cfa7	0.2847874
17	0x3db795b9	0.08964104
18	0xbe5a42a1	-0.2131448
19	0x3dca457a	0.09876533
20	0x3e5e1ee3	0.2169147
21	0x3e430ee7	0.19048654
22	0xbf0b6b29	-0.5446039
23	0x3eb5c2c2	0.3550015
24	0xbf1d0faf	-0.61352056
25	0x3e5a36b7	0.21309935
26	0x3bccf262	0.00625448
27	0x3dbd8f73	0.092558764
28	0xbdd62e17	-0.1045801
29	0xbdac167d	-0.08402727
30	0xbf03ce50	-0.5148668
31	0xbe7ee80f	-0.24893211

advantage.weight f4 [3, 32]
0	0xbd3e8f72	-0.04652352
1	0x3d307ce0	0.04308784
2	0x3c9d8947	0.019230498
3	0x3bb75bfb	0.0055956817
4	0xbcaef982	-0.021359209
5	0x3e250ea4	0.16118866
6	0xbddd1dc6	-0.107966945
7	0x3df0ca0f	0.117572896
8	0xbd291573	-0.04128022
9	0xbd99820a	-0.07495506
10	0xbdc27861	-0.09495617
11	0x3ad8e32c	0.0016547195
12	0x3d9e2df9	0.07723612
13	0xbde3be2f	-0.11120259
14	0xbd336162	-0.043794043
15	0x3d30eb95	0.04319342
16	0xbd9f12f8	-0.0776729
17	0x3bf83008	0.007574085
18	0xbd67a14f	-0.05655032
19	0x3d1e540c	0.038654372
20	0x3cfc779b	0.030818751
21	0x3d90611d	0.07049773
22	0x3eeff5dd	0.46867266
23	0x3d296580	0.041356564
24	0xbe19e237	-0.150277
25	0x3e399951	0.18124892
26	0xbe448a98	-0.19193494
27	0x3ce8d8d7	0.02842371
28	0xbd677036	-0.056503497
29	0xbdab32a1	-0.08359266
30	0x3ebfae33	0.3743759
31	0xbedde213	-0.43336543
32	0xbd8f16dc	-0.06986782
33	0x3d9871e7	0.074436
34	0x3e0fa303	0.14027028
35	0x3ca27983	0.019833332
36	0x3e24e28d	0.16102047
37	0xbd3c22f8	-0.045931786
38	0x3e28eec4	0.16497332
39	0xbe0f942d	-0.14021368
40	0xbdcf131a	-0.10111065
41	0xbd8e873e	-0.06959389
42	0x3dbec297	0.09314459
43	0x3cc5ab90	0.024129659
44	0xbd1e8c27	-0.03870788
45	0x3cb66abb	0.02226769
46	0x3d93d2c2	0.07217933
47	0x3d368134	0.04455681
48	0x3d645249	0.055742536
49	0x3cbce9c7	0.023060692
50	0xbcfff747	-0.03124584
51	0x3c20d3d2	0.009816127
52	0x3cc554bb	0.024088254
53	0x3d8e9693	0.069623135
54	0xbd288e4f	-0.04115134
55	0x3da85f59	0.08221311
56	0x3c0b104a	0.00848777
57	0x3e4e260a	0.20131698
58	0x3d4ef705	0.050528545
59	0x3daf55c2	0.08561279
60	0x3d398309	0.04529098
61	0xbdd63522	-0.10459353
62	0x3ca3f0a9	0.020012217
63	0x3d16b81f	0.036796685
64	0xbe11bca0	-0.14232111
65	0xbd01f92b	-0.031731766
66	0xbe20de0f	-0.15709709
67	0xbdb187df	-0.086684935
68	0xbd3c555d	-0.045979846
69	0x3daab5a1	0.08335424
70	0x3dcef4fb	0.1010532
71	0xbe2edeb0	-0.17077136
72	0x3d7a08ea	0.061043657
73	0xbdaa61b1	-0.083194144
74	0x3c6d247f	0.014474033
75	0xbe32777f	-0.17428397
76	0xbe0bdb95	-0.13657983
77	0xbe172d13	-0.14763288
78	0x3ce23c22	0.027616564
79	0x3dce5cd0	0.10076296
80	0xbe3093b7	-0.17243849
81	0x3e2a16cd	0.1661026
82	0x3cdc879f	0.026920138
83	0xbe1a0cd4	-0.15043956
84	0xbd0b705c	-0.0340427
85	0xbdfcf97a	-0.123522714
86	0xbe1bfcec	-0.15233201
87	0xbd683d59	-0.05669913
88	0xbeabe63b	-0.3357409
89	0x3db41cbf	0.087945454
90	0x3e474b37	0.19462286
91	0xbe0c0a71	-0.13675858
92	0xbde0567c	-0.109539956
93	0x3e049483	0.12947278
94	0xbe9ee703	-0.31035623
95	0x3ea5d6ef	0.32390544

advantage.bias f4 [3]
0	0xbd7aea6a	-0.06125871
1	0x3e9d8f56	0.3077342
2	0xbdab8db6	-0.083766386
